results/best_models/ft_transformer_plr_regression_weights_seed_42.pt (torch, 868242 bytes, 56 tensors)

transformer.tokenizer.cls_weight f4 [1, 64]
000000 10 70 80 bd 59 88 cf 3b a5 cc d3 3d 06 b4 aa 3d
       -0.06271374 0.0063333926 0.10341767 0.08335118
000010 df a4 ef 3d fc 77 0b 3d 89 93 a3 bd 99 88 2f bd
       0.117013685 0.034049973 -0.079871245 -0.04285488
000020 96 99 13 bd 01 39 b1 bd 8d f4 45 bd b1 05 f1 bd
       -0.036035143 -0.08653451 -0.048328925 -0.11768664
000030 c7 5e 70 bd 9a 51 00 be bc f1 f9 3d d1 f1 a2 3c
       -0.058684137 -0.12531129 0.1220431 0.019890698
000040 50 29 f7 3d 25 10 95 3d 5b 61 f7 3d 9c cf 02 bd
       0.120684266 0.0727847 0.12079116 -0.031936273
000050 1a c9 71 bd 41 43 59 bd 14 36 f3 bd a2 47 c5 bb
       -0.059029676 -0.053042654 -0.11875549 -0.006020502
000060 06 8a 7c 3c 7f ac 92 3d ab 9b c2 bc a1 42 29 3d
       0.015413767 0.07161807 -0.023755869 0.041323308
000070 85 86 60 3d d5 72 d0 3c 23 16 05 3d 01 29 43 bd
       0.054815788 0.025445381 0.032491814 -0.047646526
000080 34 d5 8c 3d c1 13 fc bd da fa 26 3c 16 b3 8b 3d
       0.06876603 -0.12308455 0.010191644 0.06821267
000090 bc 0c 9c 3d 9c 57 6d 3d a8 3d 9c bc 40 49 b5 3d
       0.076196164 0.05794488 -0.019072369 0.08851862
0000a0 63 4b eb bd 61 4c df bc 39 d7 35 bd 06 6f 96 3d
       -0.11488988 -0.0272581 -0.044394705 0.07345395
0000b0 7a 6e e4 3d 4b cb 08 bd d8 dc c3 3c 05 cf 5d bc
       0.11153884 -0.033397 0.023909017 -0.013538127
0000c0 c2 e5 12 bd f8 a0 56 3d 6b 36 e4 3c a6 73 7e bd
       -0.035863645 0.052399606 0.02785798 -0.06212201
0000d0 10 bc bc 3c 44 27 e3 3d 97 25 ba bd f4 fa 9d bc
       0.023038894 0.11091474 -0.09089201 -0.019284703
0000e0 cb 06 dc bd 06 eb 01 bd 26 aa e9 3d 26 e8 a5 3d
       -0.10743483 -0.031718276 0.11409406 0.081009194
0000f0 91 39 f9 bd 33 22 e8 bd 48 d0 f5 3b 53 74 84 bc
       -0.12169183 -0.11334648 0.0075016357 -0.016168749

transformer.tokenizer.bias f4 [8, 64]
000000 c9 dc c8 bd 0d 0d 25 3d 8b f2 07 bd c8 00 ff 3c
       -0.098077364 0.04029565 -0.03319029 0.031128302
000010 02 16 98 3d 44 ed 25 bd 1a d0 d1 bd 42 29 8d 3d
       0.07426073 -0.040509477 -0.1024477 0.06892635
000020 cf 85 ca 3d 51 55 95 bd 78 fd b6 bd 1c 3c 44 bd
       0.09888803 -0.072916634 -0.08935064 -0.047908887
000030 ed 27 a7 3c 91 90 df 3c 64 40 50 3d df 3a f6 3d
       0.02040478 0.027290614 0.050842658 0.120229475
000040 5a 80 9d bd 20 ba 9e 3d ab 57 d7 3d df 9a 7b bd
       -0.07690497 0.07750344 0.10514768 -0.061426993
000050 68 2a 9b bd ff aa dd 3d 45 f3 eb 3d 12 89 bc 3c
       -0.07576448 0.108236305 0.11521009 0.023014579
000060 c1 74 81 bd 03 f4 2d bd ed 7b ef bd d0 fb 9b bc
       -0.06321097 -0.042469036 -0.11693559 -0.019040972
000070 77 8c 83 bd 39 da e1 3d 29 f5 cd bc 34 44 4e 3d
       -0.06423276 0.11027951 -0.025141316 0.050358012
000080 22 cf 92 3d 45 59 71 3d ed 25 44 3d e6 bb d4 bb
       0.07168414 0.058923025 0.04788773 -0.006492126
000090 ef 0b 6e bc 86 18 d8 bd d3 91 89 bd 1c 7c d0 3a
       -0.014529212 -0.105515525 -0.06717267 0.0015906128
0000a0 97 76 e6 3d bc 78 02 bc 2d cf 42 3d 69 22 49 3d
       0.11253088 -0.007963356 0.04756086 0.04910508
0000b0 3a 15 c9 bd 98 a9 df 3d 62 7c 3e 3d 98 87 b0 bc
       -0.09818502 0.10921019 0.04650534 -0.021549031
0000c0 3b 80 94 bd 4e 67 b0 bd 15 41 19 bd 0d 1b 17 bd
       -0.072510205 -0.08613454 -0.037415583 -0.036891032
0000d0 66 bc 82 bc 69 7b a7 3d aa 8f 99 bd 75 01 84 bd
       -0.015958976 0.081778355 -0.07498105 -0.064455904
0000e0 6e a5 19 bd 29 87 83 bd fe c2 dd 3c 52 cc 42 bd
       -0.03751128 -0.06422264 0.027070519 -0.047558136
0000f0 ae d6 57 bd 54 c9 de 3d 48 2a 05 bd b2 9a bd bd
       -0.05269497 0.10878244 -0.032511026 -0.092580214
000100 1a 5d 82 3d 06 b2 bc bc 72 09 73 bd 82 3f cb 3d
       0.06365414 -0.023034107 -0.05933518 0.099242225
000110 f4 91 db bc 8a f6 6a bd fa ba 18 3d 7a d9 d4 bc
       -0.026802994 -0.057364024 0.03728769 -0.025982607
000120 b1 63 cb 3d 8f a6 bc 3d 64 89 e6 bb 0d 1c 0c bd
       0.09931124 0.09211456 -0.007035421 -0.03420644
000130 47 43 89 3d 9e 7b 85 3d 6e f1 a5 bd 11 ac 12 3d
       0.06702285 0.06517719 -0.0810269 0.035808627
000140 12 50 41 3d d2 5f 04 3e b6 e5 a5 bd dc c5 b1 bd
       0.0471955 0.12927178 -0.081004545 -0.08680317
000150 e4 1a 91 bc 44 be 01 be d6 05 81 bb fa a9 8f 3d
       -0.017713018 -0.12670237 -0.0039374633 0.07014842
000160 4f 52 82 bd 51 6a f5 3d 8d b1 8a 3d 3f 51 9f 3d
       -0.06363355 0.11983169 0.067721464 0.07779168
000170 80 ac 8e bd 55 e7 6c 3d 30 49 a3 3d cd a7 9b 3d
       -0.069664955 0.057837803 0.07972944 0.07600365
000180 06 50 c2 bd da 00 5a 3d ca bd dd 3c 44 3e 2c 3c
       -0.094879195 0.05322347 0.027068038 0.010512892
000190 11 73 e1 3d 12 87 03 3b 4d d4 35 bd 31 04 a9 bd
       0.11008275 0.0020069522 -0.04439192 -0.082527526
0001a0 d6 eb b2 bd b2 17 40 bd b7 ae b5 3d a8 cf 7b 3d
       -0.087363884 -0.046897598 0.08871215 0.061477333
0001b0 f0 43 56 3d 25 fd 23 3d 38 40 b9 3c 9d 04 1d bd
       0.052310884 0.04003634 0.02261363 -0.038334478
0001c0 85 7d 34 3d e4 21 ff bc cf d3 38 3d 42 c8 61 3d
       0.044065017 -0.03114409 0.04512387 0.05512262
0001d0 ad 17 b3 bd 79 1b bc bd 9c da df bd 44 c9 03 3d
       -0.0874475 -0.091849275 -0.10930368 0.032174364
0001e0 06 23 36 bd 1b ea a1 bc 42 18 7d 3c ff 8b a9 3c
       -0.044466995 -0.01976495 0.015447678 0.020696638
0001f0 21 91 de bd ae 98 e1 bc dc 3e bb bc 8f c8 df bc
       -0.10867525 -0.027538624 -0.022857122 -0.027317313
000200 94 27 01 be 3f 55 ac bd ab f5 9f bc 81 fc d0 3c
       -0.12612754 -0.08414697 -0.019526323 0.025511028
000210 56 e9 a5 3d f1 44 7e bd 96 1d 4f bb 19 d3 c6 3d
       0.08101146 -0.062077466 -0.0031603328 0.097082324
000220 bd 62 41 bd f3 bb 4b 3d 31 8b a1 3d 94 10 04 bd
       -0.047213305 0.04973979 0.07887877 -0.032242373
000230 7a 00 9b bd ab 81 61 3d 3a d7 46 3d 46 56 54 bd
       -0.0756845 0.0550553 0.0485451 -0.05184009
000240 20 ae ba bd 67 2f 98 bc 82 19 50 bc 06 70 80 3d
       -0.09115243 -0.01857729 -0.012701394 0.06271367
000250 d4 1f a9 bd 4d 3e b9 3c b4 6b 96 3c 86 5c f9 3c
       -0.08258024 0.022612715 0.018361904 0.030439626
000260 21 a6 cb bd 90 89 ff bc 40 65 ff bd c7 41 18 3d
       -0.09943796 -0.031193525 -0.12470484 0.037172105
000270 da 4a 6c bd 26 81 cc bd fa 5a c7 3d 52 20 99 bd
       -0.05768857 -0.099855706 0.09734149 -0.07476868
000280 da 43 01 3d 65 46 70 3d 62 0f 4f 3d 9b fc d8 bd
       0.03155885 0.058660883 0.05055178 -0.10595056
000290 05 e8 96 bd 41 7d e5 bd a6 1f 9e 3a 82 a3 3f 3d
       -0.07368473 -0.11205531 0.0012063875 0.046786793
0002a0 40 ba af bd 77 cf 61 3d dd f8 e2 bd d5 87 c5 bd
       -0.08580446 0.055129495 -0.11082623 -0.096450485
0002b0 f3 16 8f bd 2c 2c a0 bc fe b9 01 3e 4c d3 fe 3d
       -0.06986799 -0.019552313 0.12668607 0.124426454
0002c0 f3 82 f9 bd dd 0e 33 3c 8c 11 6f 3d aa 4d e5 bb
       -0.1218318 0.010928837 0.058366343 -0.0069977837
0002d0 7c 9d 41 bd 0e ad b6 3c cd 88 01 3e f4 96 88 bd
       -0.04726933 0.022299316 0.12649842 -0.06669417
0002e0 b2 db 44 3c 5f d3 5c 3c c0 f5 86 bd 59 97 96 bd
       0.01201527 0.013478129 -0.06589842 -0.07353086
0002f0 3a a9 7d bc cd fb c3 3d 5f 66 7c 3c a5 7e c6 bd
       -0.015482241 0.095695116 0.015405267 -0.09692124
000300 b4 e4 95 3d f7 c5 83 bc a8 d3 14 bd e3 de f9 3d
       0.07319012 -0.016085608 -0.036334664 0.122007154
000310 fe fe d3 bd 10 a4 8d bd 66 3a 72 bd e5 78 68 3c
       -0.1035137 -0.06916058 -0.059137724 0.01418898
000320 84 c6 4e 3d 3b c4 de bd 06 78 51 3c 71 e9 3e 3d
       0.050482288 -0.10877272 0.0127849635 0.046609346
000330 f4 34 5b bc 43 4e da bd bd 06 c1 3d 7f 47 7d 3c
       -0.013379324 -0.106594585 0.09425113 0.0154589405
000340 27 bb 24 3b e7 18 a0 3d 50 e6 e2 3d 11 96 fb 3c
       0.0025135966 0.0781725 0.11079085 0.030711206
000350 dd 5f 37 bd 9c 75 77 bc c4 17 4a bd bb f3 8f 3d
       -0.044769157 -0.015103724 -0.04933907 0.0702891
000360 0a 4c b9 3d 41 d6 8b 3d 23 9a d9 3d 0f c5 ab 3d
       0.090477064 0.06827975 0.10625102 0.08387195
000370 f0 03 48 3d f3 a9 f4 bd 5c b0 90 3c 30 6a 41 bd
       0.04883188 -0.11946478 0.01766222 -0.04722041
000380 16 83 6e bd 12 b2 a2 3c 05 c0 9a 3c 68 53 d9 bd
       -0.058230482 0.019860301 0.01889039 -0.106116116
000390 c3 62 61 bc 89 26 52 3d 98 eb 50 3d 6f f5 d3 3c
       -0.013756457 0.05130628 0.05100593 0.025873868
0003a0 bc b8 9c 3d 51 73 0e 3d 45 a4 f0 bc ee 0b a8 3d
       0.07652423 0.034777943 -0.029375205 0.082054004
0003b0 ba 34 b6 3c 27 3e 92 3d 71 d8 16 bd 49 1c f4 bd
       0.022241939 0.07140761 -0.03682751 -0.119194575
0003c0 6f f9 10 bd 09 e6 28 bd b1 f7 8f 3d e0 a7 59 3d
       -0.03539413 -0.041235004 0.07029665 0.053138614
0003d0 de c2 b9 bc 43 dd 5b bd af 96 ce bb af 4a 5b 3b
       -0.022675928 -0.05367781 -0.006304584 0.0033461263
0003e0 eb 5e e0 3d 8a c2 a3 bc d3 7e bb 3c f8 27 19 bc
       0.10955604 -0.019990224 0.022887623 -0.009347908
0003f0 eb 4b 8e 3c 89 f8 e3 bd e8 c6 09 3b c5 06 a2 3c
       0.017370185 -0.11131389 0.0021023098 0.019778619

transformer.tokenizer.num_embeddings.0.periodic.weight f4 [8, 48]
000000 f3 8a a5 3c 1f 6a be ba 12 32 73 3c ad 26 94 bc
       0.020207858 -0.0014527476 0.014843481 -0.018084848
000010 bc 12 cb 3b 04 f4 f9 3b c9 69 85 bc 5c 8f 36 bc
       0.0061973017 0.007627966 -0.016285794 -0.011142578
000020 3c e0 c4 3a cf 13 9a bc 75 fa 81 39 04 8b 82 3c
       0.001502044 -0.018808274 0.00024791402 0.015935428
000030 9d 7c c2 3c 3f 88 90 bb 34 aa 46 bc ef b7 67 bc
       0.02374106 -0.004410773 -0.0121255405 -0.014142974
000040 37 e6 99 3c 5c 23 75 bc 0c 87 ca 3a e8 84 84 bc
       0.018786533 -0.014962044 0.0015451624 -0.016176656
000050 bc c7 6f ba 8b e9 a8 bc bb 03 c9 bc cb 3e 06 bc
       -0.0009146889 -0.020619174 -0.024537912 -0.008193682
000060 ac 42 ab bc 70 89 07 3c ab 70 9a 3c 83 6c 8b bc
       -0.020905815 0.008272514 0.018852552 -0.017019516
000070 eb 0e 87 3c 4d fa 18 bc b0 99 f8 3b f5 e0 5a 3c
       0.016486606 -0.00933702 0.0075866804 0.013359298
000080 21 5b 89 bb 90 95 17 3d e3 7e e5 3c 8d 33 06 3b
       -0.0041917716 0.03700787 0.028014606 0.0020477504
000090 c3 30 8c 3c 7f 19 e4 3b 9c bd 69 bc dc b8 ec 3b
       0.017113095 0.006961047 -0.014266398 0.0072241854
0000a0 23 31 4b bc c4 12 58 3c 6a e8 7b bb ee cc ba 3c
       -0.012401852 0.013188068 -0.003843809 0.022802796
0000b0 be d3 4f bc 65 8a 3b bc aa 2f b8 bb 6d 73 7b bc
       -0.012684761 -0.01144657 -0.0056209164 -0.015347344
0000c0 28 a6 05 bc 4d b7 57 3c ae 28 d9 bb 9f 46 3d bc
       -0.0081572905 0.013166261 -0.006627164 -0.011552482
0000d0 62 2b 06 bc d5 f9 b6 ba d5 e6 33 bb 55 79 cd 3a
       -0.008189054 -0.0013959954 -0.002745082 0.0015676419
0000e0 e1 6c 00 bc 30 72 97 3b 35 b8 86 3c 4f c2 4d bc
       -0.007838459 0.0046217665 0.016445259 -0.012558534
0000f0 f2 4f 88 3b 70 67 95 bc 1a bc 9b bb 21 75 c8 3c
       0.004159921 -0.0182378 -0.004752648 0.024469914
000100 bf 30 8a 3c f1 c8 13 3d 9f 3f dd 3c 49 52 a7 3b
       0.016868947 0.036080305 0.027007876 0.0051062447
000110 cc 82 da bc 9d bc b5 bb 53 8a c4 ba bd bd cb bc
       -0.026673697 -0.005546166 -0.0014994837 -0.024870748
000120 ba 00 6f bc fd 47 f5 3b c1 c3 4e 3c bf 45 a5 bb
       -0.014587576 0.0074853883 0.012619914 -0.005043715
000130 41 e0 f2 3c 2e bb b6 3c ad ad 70 bb 55 34 49 3c
       0.029647948 0.022306051 -0.0036724613 0.012280543
000140 1a 25 a0 bc c8 b7 ed 3b b1 1d 84 3c 7f 1b 4a 3c
       -0.019548941 0.0072545744 0.01612744 0.012335657
000150 68 37 a7 3c 52 cb b6 ba b3 ad 34 3c 45 f3 b5 3c
       0.020412162 -0.0013946092 0.011027741 0.022210727
000160 fb 56 b8 bc 7f 3b 9c ba ac cb 76 bd 1f 97 23 3b
       -0.022502413 -0.0011919587 -0.06025283 0.0024961901
000170 aa 19 39 bd 54 83 a3 ba ca 97 23 bc 0e c1 c3 3b
       -0.04519049 -0.0012475052 -0.00998492 0.0059739416
000180 24 d4 02 bc d9 3a c9 3c 00 02 cf bc 62 70 b8 ba
       -0.007985149 0.024564194 -0.025269508 -0.0014071579
000190 b8 af 54 3c 84 f1 a3 3b 28 09 8e bb 33 1b 06 bc
       0.012981348 0.005003156 -0.0043345876 -0.008185196
0001a0 e6 36 f8 bc d6 e9 41 bc a7 99 8c bc ff ed 54 bc
       -0.030299615 -0.011835536 -0.01716311 -0.012996196
0001b0 61 1b 7d bc c4 b1 63 3c e1 46 cf bb 62 8d b4 bc
       -0.015448422 0.013897363 -0.006325588 -0.022040073
0001c0 5d 60 60 ba a0 13 14 bc 3b 09 9b bc fe 0c ba ba
       -0.0008559281 -0.009037882 -0.0189253 -0.0014194546
0001d0 3f 52 38 bc a7 22 8c bb 91 a1 45 bb cd 70 1e bc
       -0.011250078 -0.004276592 -0.0030156116 -0.0096704485
0001e0 3e 94 62 3b a9 9f 58 3b 02 75 23 bc 0f 3f 7a 3c
       0.0034573223 0.003305415 -0.009976627 0.015273823
0001f0 55 94 3e bc 27 62 c6 bc 99 c2 51 bc 74 56 40 bc
       -0.011632045 -0.024216725 -0.012802743 -0.011739362
000200 4c fa 68 3c 1d c9 0c bb 01 22 ff 3c b6 52 0a bd
       0.014219832 -0.0021482178 0.031144144 -0.033770286
000210 fd e5 1b bd d3 c9 ba bc 84 1e 01 ba 1f ba 06 bd
       -0.03806113 -0.022801315 -0.00049255067 -0.032892343
000220 b5 e9 8a ba d6 40 bd 3c 11 74 35 3a 96 67 16 3a
       -0.0010598215 0.023102205 0.00069218973 0.00057374814
000230 e5 bd 98 3c b7 2b fc 3c f0 7f ad 3c 7f 39 d0 3c
       0.018645236 0.030782564 0.02117917 0.025418041
000240 cc 44 06 3d 9c b5 c0 3c 0d 30 0c 3d 81 fd fd bc
       0.032780454 0.023524098 0.034225512 -0.03100467
000250 a5 81 84 3c 45 f5 bc 3c ef 2b 47 bc ed af 07 3c
       0.0161751 0.023066172 -0.012156471 0.00828169
000260 26 4e 0b 3d c9 f6 b6 bc 3d 3b 88 3c c5 8f 45 bc
       0.034010075 -0.022334473 0.01662981 -0.012058203
000270 04 d1 fc 3c 25 69 13 bd 1b c6 91 3c 20 a9 99 bb
       0.030861385 -0.035988946 0.01779466 -0.0046893507
000280 08 ea 14 3d 0a 9e 82 bc c3 ef 0f 3d 5f 3e 09 bc
       0.036356002 -0.0159445 0.035140764 -0.008376687
000290 de ff bd b9 f2 84 5f bc 8c cb ef 3b 01 01 09 3d
       -0.00036239525 -0.0136425365 0.007317966 0.033448223
0002a0 9c f1 99 bb e0 f1 80 3c 9a 9b e0 3a fe 9c 93 bc
       -0.0046979915 0.015740335 0.0017136217 -0.018019196
0002b0 00 c9 4b 3c 1a 17 fe bb 71 05 c5 3c b3 fb 1b bc
       0.012438059 -0.0077542188 0.024050446 -0.009520459
0002c0 cb 1a 56 bc 7a bd b1 3c c0 8c a1 bb 7b 3e da 3c
       -0.013067911 0.021696795 -0.004930109 0.026641121
0002d0 59 6e 57 3c fa 74 a8 3c 3a bd 5e 3c 63 37 2b 3a
       0.0131488675 0.020563591 0.01359492 0.00065313856
0002e0 71 e5 46 bc d1 35 27 bc 4d ae 25 3d d4 9f ad 3b
       -0.012139664 -0.010205702 0.04044943 0.005298594
0002f0 9e fd 8c bb a7 f0 02 3c 7b 78 3f bd 36 c6 cb bc
       -0.0043026945 0.007991946 -0.04674576 -0.024874788
000300 14 66 8b 3c 7d ce 86 3c 2d c8 d0 bb d7 fa 01 bc
       0.017016448 0.016455883 -0.006371519 -0.00793334
000310 01 5e f6 39 13 20 d2 3b 6b cc 10 3b 3c 5e 9b 3a
       0.00046990815 0.006412515 0.00220945 0.0011853646
000320 69 c5 84 3c b0 c8 4e 3b 31 fc 8b 3b 80 0d 05 bc
       0.016207414 0.0031552725 0.004272007 -0.008120894
000330 cd 10 85 3c d2 86 92 bb a7 09 75 bc e7 b5 4e 3c
       0.016243363 -0.0044716382 -0.014955915 0.012616611
000340 13 c9 16 3d a5 17 20 bc d1 aa 22 bc e9 d4 f2 3b
       0.036812853 -0.009771262 -0.009928421 0.007410635
000350 f0 02 4f 3d 7d 87 2b bc c6 3d 18 bc ce 74 0f bd
       0.05053991 -0.010469315 -0.009292072 -0.035023503
000360 f1 5b b3 3b 8d 9d 21 bb d3 0c 8e bd cc 3d ed 38
       0.0054736068 -0.0024660558 -0.0693604 0.00011312551
000370 95 49 4f 3b b1 a6 3b bc 28 df 89 bc f1 d1 c6 bb
       0.0031629552 -0.011453317 -0.016830042 -0.0060675074
000380 d0 81 53 bc f1 d5 f8 39 9f 1e fa bc 08 06 38 ba
       -0.012909368 0.00047461645 -0.03053218 -0.00070199417
000390 07 5f 06 bc de d4 ae 3b c4 2d 3b 3c a5 51 bf 39
       -0.008201367 0.0053354343 0.011424486 0.0003649119
0003a0 bb cc 10 bc 32 55 7e bc 2e 4d da bc fa 70 ef bb
       -0.008837874 -0.015523242 -0.02664813 -0.007307169
0003b0 2d 73 6e bc 7f 42 15 bc cd 21 81 bb bb 12 e2 bb
       -0.014553827 -0.009110092 -0.003940797 -0.0068992055
0003c0 c3 21 38 bd 58 73 43 bd 7e 83 92 bc 1b ac 49 3d
       -0.044954073 -0.047717422 -0.017884966 0.0492364
0003d0 13 2b 63 bd 30 d4 1f bd 09 64 24 3d 9c 26 23 3c
       -0.055461 -0.039020717 0.040134463 0.009957936
0003e0 4d e7 22 bd c6 65 41 3d 7f 97 c2 bc c3 1f 62 3b
       -0.039771367 0.0472162 -0.02375388 0.0034503795
0003f0 74 00 4c bd 57 88 38 3d 0f ac f5 bc 91 46 a0 3c
       -0.04980512 0.0450519 -0.02998927 0.019564899

transformer.tokenizer.num_embeddings.0.linear.weight f4 [64, 96]
000000 a0 01 eb 3c 2c 21 61 3d 5f 43 aa bd a4 fb 84 3d
       0.028687298 0.054963276 -0.08313631 0.06493309
000010 dc 25 ef 3c 37 c3 c8 3d 04 7c 52 3b 51 60 12 3c
       0.029192857 0.09802859 0.0032117376 0.008934096
000020 02 c9 b5 3c fb 71 a6 3d a3 bc b0 bd 87 e9 61 3d
       0.022190575 0.08127209 -0.086297296 0.05515435
000030 c2 39 6b 3d fe 23 1c bc 87 be 90 bd 07 c8 9e 3d
       0.05742813 -0.009530066 -0.0706759 0.07752996
000040 5e cd 78 3d f1 5f cc bc 37 9c 86 3c dd 4c 05 bd
       0.06074273 -0.024948092 0.01643191 -0.032544006
000050 c5 d4 41 bd f7 fb cc 3d b1 f5 22 3d 98 7f a9 3b
       -0.047322053 0.10008996 0.03978509 0.005172681
000060 05 3e 82 3d 66 40 89 3d c5 03 5a 3d d0 ce 34 3d
       0.063594855 0.06701736 0.05322625 0.044142544
000070 47 ef 9e bd 41 ab 2c bd 59 1a ab 3d 34 11 f4 3c
       -0.07760482 -0.042155508 0.08354635 0.02979336
000080 bb 35 db 3c a9 b5 8b bd 22 02 4d bd 26 19 22 bd
       0.02675902 -0.06821758 -0.050050862 -0.039574765
000090 78 ea 41 3d ae 40 2d bd af 29 9d 3d 60 e3 96 bd
       0.047342747 -0.04229801 0.07673966 -0.07367587
0000a0 fc 3c 9a bc 98 d6 ae 3d 64 e4 34 bd 6c 0e 0d 3a
       -0.018827908 0.08537024 -0.044163123 0.0005380872
0000b0 33 0b 00 bd 29 67 0e 3d 76 47 58 bd d2 89 a0 bd
       -0.03126068 0.03476635 -0.052802525 -0.07838787
0000c0 d3 25 8f bd 32 00 1b 3b 6c 04 52 bd 71 98 2c bd
       -0.06989636 0.002365124 -0.05127375 -0.042137567
0000d0 76 04 51 bd 7e da b1 bd 81 15 f8 3d 7c 2c c6 3b
       -0.051029645 -0.08684252 0.121134765 0.0060477834
0000e0 27 2a 2b 3c 97 5a 06 3e b5 b5 c7 bd 1a 77 38 3d
       0.010447062 0.13120495 -0.09751455 0.04503546
0000f0 2d a4 ac bc b7 83 f7 3d 96 e5 ca bc 92 60 33 3d
       -0.021074379 0.120856695 -0.024767678 0.04379327
000100 f5 2c 0f be 47 04 ed 3d 23 da e9 bd 4c f6 00 3e
       -0.13981993 0.115730815 -0.114185594 0.12593955
000110 3d c8 8e bd 99 92 89 3d 43 42 da 3c f0 2c a2 3d
       -0.06971786 0.067174144 0.026642924 0.079187274
000120 8c 4e b5 bd 18 83 8c 3d c2 e5 bd 3d 93 5a 5a 3d
       -0.08852872 0.06860942 0.092723384 0.053309035
000130 2a c9 c1 3d 4e 09 d8 3d 6d 49 13 3d 16 4d 1e 3d
       0.09462197 0.1054865 0.035958696 0.038647734
000140 bf 8e 53 3d 4b 28 74 3b f0 8c 95 bd 3c bc 60 bd
       0.051649805 0.0037255462 -0.07302272 -0.054867014
000150 fe f1 94 bd ad db e2 bd e2 a2 22 bd 53 65 99 bd
       -0.07272719 -0.11077056 -0.03970612 -0.07490029
000160 e6 f6 71 3d 7a 4f 9e bc 97 57 8b 3d da b2 b6 3c
       0.05907335 -0.019325007 0.06803816 0.02230208
000170 c5 cf cc bb 54 97 f6 3d d4 90 ca bc fc 0c 91 bc
       -0.006250354 0.12040582 -0.024727263 -0.017706387
000180 bc 03 b5 3d 74 4d 52 3d b5 7c 58 3d 11 42 b9 bd
       0.08838603 0.051343396 0.052853305 -0.09045804
000190 55 a6 90 3d 8d a0 b4 bd a7 50 35 3c 4a 25 29 bd
       0.07062975 -0.08819685 0.011066592 -0.041295327
0001a0 78 45 48 3d 33 98 76 bd 2d 11 ac bd e7 38 cd bd
       0.048894376 -0.060203742 -0.084017135 -0.10020619
0001b0 5c bb a0 bd 85 3d 10 bd 7a f1 b1 bb 6c 93 e7 bc
       -0.07848236 -0.03521492 -0.0054303976 -0.028268538
0001c0 c0 66 0b bd 7d f1 ad 3c 0c de ad 3d 5d 5c 1d bd
       -0.034033537 0.021233315 0.08489618 -0.038418163
0001d0 bb 6a 94 3d 2e 3f 43 bd 8d c9 a8 3d f0 54 49 bd
       0.0724692 -0.047667675 0.08241568 -0.04915327
0001e0 b4 47 33 bd 72 07 18 bd 24 16 03 bd ad f3 8d bd
       -0.043769553 -0.037116475 -0.032003537 -0.06931243
0001f0 b4 9d b3 3d d4 f2 b5 bd 44 4f 49 3b 7a 50 cf bd
       0.08770314 -0.088842064 0.0030717412 -0.101227716
000200 bc c3 81 bd 50 2d 45 3c a4 e2 87 bc 63 94 ea bc
       -0.063361615 0.012034729 -0.016587563 -0.02863521
000210 e5 97 64 3b 96 a9 d9 bc eb a8 ce bd 61 fd 02 bc
       0.0034880575 -0.026570123 -0.10090812 -0.007994981
000220 af f1 b7 3c 30 aa a3 3d 1a 86 83 bd 32 77 a3 bd
       0.02245411 0.07991445 -0.06422062 -0.07981719
000230 24 b4 ba bd be 03 47 3d 6b 21 cb bd 74 21 88 3d
       -0.0911639 0.048587553 -0.09918483 0.06647006
000240 8c 41 14 3d 4f 55 82 3d f1 a9 ff bc 11 11 80 3d
       0.036195323 0.063639276 -0.031208964 0.06253255
000250 29 fc 4e bd 30 ef b0 bc 64 e3 95 3d 1e 01 53 bd
       -0.050533447 -0.021598428 0.07318762 -0.051514737
000260 f6 e7 e3 bc d7 37 ab 3b 92 6a 21 3d 74 54 03 bb
       -0.027820569 0.0052251625 0.039408274 -0.0020039352
000270 2a 88 9b bd ba b6 73 bc 55 f3 2d 3d 85 76 a5 bd
       -0.075943306 -0.014875108 0.042468388 -0.080792464
000280 9e d1 bc bd 68 b1 0f bd 91 14 89 3c 26 cb e6 bc
       -0.09219669 -0.035081297 0.01673344 -0.02817304
000290 5d 30 27 3d 95 26 aa 3c 22 1d aa 3d 1f 8e ae bc
       0.040817607 0.02077035 0.08306338 -0.021308003
0002a0 89 c2 77 bd ae 2d 05 bd 0c e3 b5 bd da 3f 39 bd
       -0.060488258 -0.032514267 -0.088811964 -0.04522691
0002b0 6e f8 38 bd 6e f6 9d bd a4 c4 e0 bd 3d 23 ba bd
       -0.045158796 -0.07713018 -0.10975006 -0.090887524
0002c0 e4 b3 59 3d 04 dd 19 bd b9 bf d1 3d 7d 29 08 bd
       0.053150073 -0.037564293 0.10241646 -0.03324269
0002d0 71 f9 45 3d 98 1d 4f bd 76 b4 d0 3d 92 fa 87 3c
       0.04833359 -0.050565332 0.1019067 0.016598973
0002e0 42 54 32 3c 23 fc b4 3c bd 0b 11 3d 4d 4d 2a bd
       0.010884346 0.022092884 0.035411585 -0.041577626
0002f0 1e 8d 9b 3c 69 55 37 bd 65 11 3c 3d 87 1c c6 3d
       0.018988188 -0.044759188 0.045915026 0.0967341
000300 17 6d cd 3d 3c 1d 9c bc c6 70 96 bc 03 0c bc 3d
       0.10030573 -0.019056909 -0.018364321 0.091819786
000310 a2 db 84 bd 11 90 04 3d ea a0 c7 3c 95 a3 bf 3d
       -0.06487204 0.032363955 0.024368722 0.09357373
000320 b9 50 1b bd 50 28 ab 3d 3e a0 24 bc 3d f5 cd 3d
       -0.03791878 0.083572984 -0.01004797 0.10056541
000330 8f 63 cd bd 1d 02 6a bd 53 b3 a3 bc bf fd ca bd
       -0.10028755 -0.05713092 -0.01998297 -0.099116795
000340 59 6b f8 bb 88 9c a2 bd 1d 0c 86 3d b1 14 b5 3d
       -0.007581156 -0.07940012 0.06545279 0.08841837
000350 29 b1 ad bb 59 03 7b 3d b4 04 56 3d 29 dd 2c 3d
       -0.00530066 0.06128249 0.05225058 0.042203102
000360 63 47 6d 3c 16 52 85 bd ac 57 b6 bd 62 40 2e 3d
       0.014482352 -0.06509797 -0.08903441 0.04254187
000370 d1 33 8a bd 30 7c a4 3d 37 d8 ba 3c ef ca 4c bd
       -0.067481644 0.080314994 0.022808177 -0.04999822
000380 60 0a 29 bd 1c 01 da 3c 8f 0d 0e bb 7e 5e ba 3d
       -0.04126966 0.026611857 -0.0021675562 0.09100054
000390 25 23 18 bd 60 4c 6f bd f5 a7 bb bd e3 da a9 3c
       -0.03714289 -0.058422446 -0.09162895 0.020734256
0003a0 12 5e 98 bd 3f ad 0e bc 58 f0 d0 3d e6 5b 31 bd
       -0.074398175 -0.008708297 0.10202092 -0.04330053
0003b0 3b 69 bc 3d 54 c2 82 3d d6 87 79 bd 1f 36 64 3d
       0.091997586 0.063847214 -0.06092056 0.055715676
0003c0 b1 72 3e bd 96 68 23 3d aa 40 b1 bd 9d c9 28 3d
       -0.046496097 0.039894663 -0.08654912 0.0412079
0003d0 7a aa 87 3d 70 6e 72 3d 3e 6b 5e bc 17 32 b3 3d
       0.06624313 0.059187353 -0.013575373 0.08749788
0003e0 44 3f c8 3c ba 4b a0 bc 1f b1 b0 3c 86 19 44 bc
       0.02444423 -0.01956736 0.021568833 -0.011968976
0003f0 fd 3b 91 bd 8a 29 87 3d c3 ae 80 bc a0 b3 06 be
       -0.0709152 0.0659972 -0.015708333 -0.13154459

transformer.tokenizer.num_embeddings.0.linear.bias f4 [64]
000000 86 ce 99 3c 16 9e 8f bd d8 29 1f 3b f9 a0 37 3d
       0.018775236 -0.070125744 0.0024286415 0.04483125
000010 d3 1b aa 3d e7 f6 49 3c 89 b4 b7 3c d0 e4 82 3c
       0.08306088 0.0123269325 0.022424953 0.015978247
000020 a2 09 58 bd e3 de e4 3c 04 ac b1 bd 72 4b fb bc
       -0.05274356 0.027938312 -0.086753875 -0.030675624
000030 fd 1a 68 3b 73 6e fd bc 93 86 35 3d ee 41 8b bd
       0.0035416477 -0.030936455 0.044317793 -0.067996845
000040 50 39 2c 3d 41 63 7b bd 67 d6 9f bd 97 4e 41 bc
       0.042046845 -0.061373953 -0.07804566 -0.011798522
000050 da 56 91 bb 0f 6e 2e bd c2 0c cd 3d d4 13 d0 bc
       -0.0044354023 -0.04258543 0.10012199 -0.02540008
000060 d9 a3 8c bc 14 f0 51 3c 81 b8 1f bd b0 a8 02 3d
       -0.017167972 0.012813587 -0.038994316 0.031899154
000070 29 70 c3 3d fe 14 88 bc 83 95 33 bd 0d f7 85 3d
       0.09542877 -0.016611572 -0.043843757 0.06541262
000080 d8 56 be 3c c4 37 5a 3d 39 44 e8 3c 40 d3 85 bd
       0.02323477 0.05327584 0.028352844 -0.06534433
000090 d2 eb a5 bd e8 37 04 bd 70 39 af bd fc db b3 bd
       -0.0810162 -0.03227988 -0.08555877 -0.08782193
0000a0 dc b4 75 3d 3a 92 65 bc 9e 95 e6 bb 89 84 a0 bd
       0.059986934 -0.014011914 -0.0070368787 -0.07837779
0000b0 96 39 80 3d fe 59 a6 3d 03 27 78 3d 86 35 5a bd
       0.06260984 0.081226334 0.06058408 -0.0532737
0000c0 05 87 df 3b 7b ec 39 bd a5 1d 3e 3d d3 9b 87 3d
       0.0068215155 -0.04539154 0.04641499 0.06621518
0000d0 2d 92 39 bd 60 54 8c bd 3f 84 83 bd ec c5 45 3d
       -0.04530542 -0.06852031 -0.06421708 0.048284456
0000e0 54 a9 d2 3c dc 1c 94 3d a7 5e 96 bc 3a a6 a4 3d
       0.025715508 0.07232067 -0.01835568 0.08039518
0000f0 2b a3 cd 3d eb dd a8 bd 28 e8 af bc 44 fe 23 3c
       0.100408874 -0.082454525 -0.021473005 0.010009352

transformer.tokenizer.num_embeddings.1.weight f4 [64, 64]
000000 dc 3e 9a 3d dd c2 d0 bd 24 eb 50 3d c0 a3 c7 3b
       0.07531521 -0.10193417 0.051005498 0.0060925186
000010 07 63 b6 3d 7b 45 e7 bd 79 86 c8 3d 65 c4 b5 3d
       0.08905607 -0.11292549 0.097912736 0.0887535
000020 c7 91 93 bb 27 8c 1e bd 18 d9 97 3d 4f 03 40 bd
       -0.004503462 -0.03870788 0.07414454 -0.046878155
000030 7a e9 00 bd e1 9e 9b bd 08 ce e8 3d 3d cb a3 3d
       -0.03147266 -0.07598663 0.11367422 0.07997749
000040 2d 07 89 3c 83 ad af 3b d4 fe ac bd 79 c8 ab 3d
       0.016727054 0.0053612604 -0.08447042 0.083878465
000050 83 fa 54 3d df 63 08 3d de 6d 4a 3d 8d 97 c6 bd
       0.05199672 0.03329837 0.049421184 -0.09696875
000060 99 d5 47 bd 9c d7 c5 3d 11 bc 6a bd 60 73 c8 3d
       -0.048787687 0.09660265 -0.05730826 0.09787631
000070 13 ef d5 bd 25 13 bd 3d d0 85 da 3d ab be da bd
       -0.104459904 0.09232167 0.10670054 -0.10680898
000080 cd a4 d6 3d 6e 67 ee 3c 11 40 6c 3d 9c f0 da bc
       0.10480652 0.029102053 0.057678286 -0.02672606
000090 83 20 af 3d 9c f0 b3 3c d6 65 c5 bd 63 c9 d5 3d
       0.08551123 0.021965317 -0.09638564 0.10438802
0000a0 a9 dd 6a 3c 4a 43 ec bc 96 59 4f 3c ca ef 49 3c
       0.014335074 -0.02884068 0.012655636 0.012325237
0000b0 91 6c f0 bd 7c 1d f0 3d e5 e5 8c bc dd ff 4e 3d
       -0.117394574 0.11724374 -0.017199466 0.05053698
0000c0 d7 47 d9 bc de 89 e9 bd 60 a2 e2 bd a7 e7 dd bc
       -0.026523514 -0.11403249 -0.11066127 -0.027088
0000d0 ad c0 0f bd 6b df cd 3d b2 c0 0c 3c 50 69 04 3e
       -0.03509586 0.10052379 0.008590864 0.12930799
0000e0 85 ca c9 3d 9b 2c 2d 3c e7 b7 4e bd c4 55 83 3c
       0.09853081 0.010569717 -0.05046835 0.016032107
0000f0 30 a8 b0 bc 4f 97 06 be 14 db 64 bb b7 6a 3d 3d
       -0.021564573 -0.13143657 -0.003492062 0.04624435
000100 25 07 2a bd 31 d3 f2 3d 8a 26 1b 3b a0 18 34 bc
       -0.04151072 0.11856688 0.0023674094 -0.010992199
000110 4f b8 12 bd 3a 33 f6 3d 0f b0 84 3d 0c 15 c2 bd
       -0.0358203 0.120214894 0.06478893 -0.094766706
000120 83 8d aa bd 57 c7 d4 bd ed 80 f0 3d 58 90 db 3d
       -0.083277725 -0.103895836 0.11743341 0.10720891
000130 da 21 5f 3d 08 30 75 3d a4 ed c6 bd 27 25 ac 3d
       0.054475643 0.05986026 -0.09713295 0.08405524
000140 76 5a 3b bc d8 6e 2c b7 9b aa 85 3c 03 47 2f bd
       -0.011435142 -1.0277807e-05 0.016316703 -0.04279233
000150 0e 26 d8 3d d0 ec 8f 3c ca 72 a6 3d 70 a8 ac bd
       0.10554133 0.017568976 0.08127363 -0.084305644
000160 60 64 ca bd 7e d0 27 bd 1f 45 08 3d 4f 28 9e bd
       -0.09882426 -0.040970318 0.033269044 -0.07722532
000170 e4 b2 95 bd 6b 84 19 3d ca 66 05 3e bd 15 c7 3d
       -0.07309511 0.0374798 0.13027492 0.09720943
000180 65 29 d7 3d aa b6 df bc c9 d2 d8 bd f5 b0 30 3d
       0.10505942 -0.02730878 -0.10587079 0.04313751
000190 bf 57 9e bd 60 2b ee 3d aa f5 c7 3c c7 97 e5 bd
       -0.0773158 0.11629367 0.024409134 -0.1121059
0001a0 ca 58 88 3b 69 23 97 bd 04 a4 7e 3d 81 72 8f bd
       0.004160975 -0.07379801 0.062168136 -0.07004262
0001b0 8e a6 a5 3b 9f e8 c4 3d d6 ce bd bd e2 52 a9 3d
       0.0050552553 0.096146815 -0.092679664 0.08267762
0001c0 15 24 8c 3d 47 a1 8a 3c 77 c4 cc 3d 36 81 a2 bd
       0.068428196 0.016922606 0.0999841 -0.07934801
0001d0 c5 b2 b9 bd f4 29 38 bd 21 af e8 3d 34 5e 85 bd
       -0.09067301 -0.044961885 0.11361528 -0.065121084
0001e0 1a b5 05 3d 1e 16 c4 bd 53 05 60 bb 13 6d ee 3d
       0.032643415 -0.09574531 -0.003418286 0.11641898
0001f0 97 00 bd 3d 2f ef 3e 3d 50 8f 4d bd a3 75 34 3d
       0.09228628 0.046614822 -0.0501855 0.0440575
000200 d8 7c e5 3d ff 14 e3 bd ac ec 3b 3d b8 5e 4c bd
       0.11205453 -0.11087989 0.045880005 -0.04989502
000210 3a e3 73 3d e3 38 72 bb 0b 6c a4 bc 9f df c6 bd
       0.059542872 -0.0036960177 -0.02007105 -0.09710621
000220 a7 fc 93 bd 17 5e 96 3c bd 5c 72 3d 33 67 1c 3b
       -0.07225924 0.018355412 0.059170473 0.0023865222
000230 b1 d7 01 3e b5 bc 94 bc 3f 29 82 bd 6c d4 8d 3d
       0.12679936 -0.018156389 -0.06355523 0.06925282
000240 20 ee 94 bd 0c e0 c9 3d 7f 82 90 3c dd cb 55 bb
       -0.07271981 0.09857187 0.01764035 -0.0032622733
000250 af 2e 8e 3d 6c ff 87 3d 76 e8 a7 bd 97 37 d0 bc
       0.06942498 0.06640515 -0.08198635 -0.025417132
000260 60 92 2b bd 4b 16 b2 bb b8 dc 92 3d c3 a0 83 bd
       -0.04188764 -0.0054347864 0.07171005 -0.06427147
000270 d8 b9 87 3d 2e 1c 00 3d a6 23 be bd 82 a8 95 3d
       0.06627244 0.031276874 -0.09284143 0.07307531
000280 30 bc 23 3c 02 09 a3 bd 36 35 9b 3c 56 76 5c bd
       0.009993598 -0.079607025 0.018946271 -0.05382379
000290 19 c5 5c 3b 7b db cc bd 44 be c6 3d 28 4f 5d bc
       0.0033686815 -0.100028 0.09704259 -0.013507642
0002a0 9c d0 ef 3d a7 ab d8 3d 4c 7c db bd 98 47 ed bd
       0.11709711 0.10579615 -0.10717067 -0.11585921
0002b0 f3 55 9f 3d 06 9f 14 bd f7 dd 9e 3d bc a3 0c 3d
       0.077800654 -0.03628447 0.0775718 0.034335837
0002c0 87 b8 4f 3d 15 69 ab 3d e9 2a 45 3d ce 17 f2 3d
       0.05071309 0.08369652 0.048136625 0.11820947
0002d0 70 6a 55 bc cc 13 d2 3d ae e3 e0 bd 66 49 ea bd
       -0.013025865 0.10257682 -0.109809265 -0.11439781
0002e0 06 3d af bd 50 dc 74 3d f0 5a 00 be ab 55 64 3d
       -0.08556561 0.05978042 -0.1253469 0.05574576
0002f0 19 50 39 3d 8d 0b be bd 1f 14 be bd a3 b4 c3 bc
       0.045242403 -0.09279547 -0.092811815 -0.023889845
000300 74 d2 8c bd 84 24 4a bd d0 77 9d bc a4 16 01 3d
       -0.06876078 -0.04935123 -0.01922217 0.031515732
000310 b6 0e 8d bd 9a d2 ad bd aa bc dd bd fc 7a 35 3d
       -0.068875715 -0.08487435 -0.108270004 0.04430674
000320 d0 79 52 bd ae 69 cc 3d 50 ce 11 bc 80 af df 3a
       -0.0513857 0.09981094 -0.008899286 0.0017065853
000330 b0 fc e3 bc 5e e0 a9 bd c2 40 91 3d de 0e c6 3d
       -0.027830452 -0.08294748 0.0709243 0.096708044
000340 3e 44 b0 bd c8 37 5f 3d b0 31 35 bc 00 d6 e9 bd
       -0.08606766 0.054496557 -0.01105921 -0.114177704
000350 60 fd 1f bc 3c 9c 1e bd 5c e7 23 bd 44 9f b9 bd
       -0.009764999 -0.038723215 -0.040015563 -0.09063581
000360 f0 84 7a bc fa 2d fd 3d b0 0b 67 3c 00 bd fb bd
       -0.015290484 0.12362285 0.014101908 -0.12291908
000370 40 66 d6 3b e2 a4 d1 bd e4 37 52 3d 4c 99 e3 3d
       0.006542951 -0.10236527 0.051322833 0.111132234
000380 38 fc 6e 3d 00 84 6b ba 80 65 68 bd a8 de 41 bd
       0.058346003 -0.0008984208 -0.056737423 -0.047331482
000390 98 e1 e5 bd 60 58 52 bd 7c bc 7f bd c0 a5 4f bd
       -0.11224669 -0.051353812 -0.062435612 -0.05069518
0003a0 50 ad a0 bd 48 08 de bc 2e 11 8b bd b0 df 00 bc
       -0.07845557 -0.027103558 -0.06790386 -0.007865831
0003b0 10 1f f0 bc 78 d2 aa bd 32 62 f6 bd 9c 04 2a 3d
       -0.029311687 -0.08340925 -0.12030448 0.041508302
0003c0 3a 03 bf 3d 78 51 83 bd 6a b0 85 bd 0c b1 a5 3d
       0.09326787 -0.06412023 -0.06527789 0.0809041
0003d0 00 f6 db 3a 40 5f 1e bc e0 77 f2 3d d0 ff 7d bc
       0.0016781688 -0.009666264 0.118392706 -0.015502885
0003e0 62 81 9e 3d a4 8b 2f 3d 08 44 66 3d 58 14 87 3c
       0.077395216 0.04285778 0.056217223 0.016489193
0003f0 00 20 fe 3a cc 51 c9 bd b0 54 fb bc 9e 21 e8 bd
       0.0019388199 -0.09830055 -0.03068003 -0.11334537

transformer.tokenizer.num_embeddings.1.bias f4 [64]
000000 62 fc be 3d 34 0e 93 bd b9 a6 96 bd cc 83 bd bd
       0.09325482 -0.071804434 -0.073560186 -0.09253654
000010 d8 2e 1f bc d4 96 92 bd 75 61 de bd ef 77 01 3e
       -0.009715758 -0.071576744 -0.10858432 0.12643407
000020 9b 3e 42 bd 14 40 14 bc 44 3c 8b 3c 94 80 15 3c
       -0.047422986 -0.009048481 0.01699651 0.009124894
000030 34 5e f3 3c 1c b2 68 3d 50 66 45 bd 5b e4 60 bd
       0.029708005 0.056810483 -0.048193276 -0.054905277
000040 4b bc 07 bc 42 d0 f5 bd c6 0f 8b bd ea 2e 86 3d
       -0.008284639 -0.12002613 -0.06790118 0.06551917
000050 58 0e ea bb f0 8a 9a bd e6 df af bd c4 a5 e2 bc
       -0.007142823 -0.075460315 -0.08587627 -0.027666934
000060 dc f3 e6 3d 8d cb a1 3d d8 5f bb bd 6b 00 57 3d
       0.11276981 0.07900152 -0.0914914 0.052490633
000070 e5 da cb bd f1 b4 fe 3d d6 2f 53 3c 29 c8 34 bc
       -0.0995386 0.124368556 0.012889823 -0.01103405
000080 3f 4a c8 3d 29 44 7c bc bf a1 00 be 94 3e ae 3d
       0.09779786 -0.01539711 -0.12561701 0.085080296
000090 c0 2a 8b 3c 79 e9 d1 bd 7a 43 9d 3c 9c b5 a9 3d
       0.016988158 -0.102496095 0.019197214 0.08286592
0000a0 b3 02 93 3d 7c 72 00 be f8 ed 8c bd 4c a3 03 3e
       0.07178249 -0.12543672 -0.068813264 0.12855262
0000b0 37 c6 e1 3d f2 78 ac 3c ae 4c 07 bd 48 ef eb 3d
       0.110241346 0.021053765 -0.03303211 0.11520249
0000c0 e3 35 34 3c ff ff b8 3d 86 3b 03 be 46 71 b7 bd
       0.010999176 0.090332024 -0.12815675 -0.08957152
0000d0 6c 82 fc 3b 83 75 0f bc df 27 1e bc 18 67 6e bd
       0.007705977 -0.008756044 -0.009653061 -0.058203787
0000e0 2e a1 4a 3d 3d 1e f3 bd 76 85 b4 bc 2e dd e0 bd
       0.04947012 -0.11871002 -0.022036295 -0.10979687
0000f0 95 f3 f1 bc 67 15 49 3d fa 1b e8 bc 06 99 c6 bd
       -0.029535094 0.049092676 -0.028333653 -0.09697156

transformer.layers.0.attention.W_q.weight f4 [64, 64]
000000 10 05 88 3d 3a 1d 66 3b bc 15 7c bd 8d 16 cc 3d
       0.066415906 0.0035112635 -0.061544165 0.09965239
000010 dd 2a 72 bd 8e cf ed 3d 23 75 54 3b dd 9a bf 3d
       -0.05912291 0.116118535 0.0032418452 0.0935571
000020 06 12 7a bd bd 75 3c 3c fb 91 d6 3c da 0e 9d bd
       -0.061052345 0.01150268 0.026192656 -0.07668848
000030 1a 15 a0 bd 8e 43 8f 3d e3 45 e1 3d 91 1b 84 3d
       -0.07816525 0.06995307 0.10999658 0.064505704
000040 a5 8e a4 bd bc 46 05 3e 50 a4 33 3d 09 70 46 bd
       -0.0803502 0.13015264 0.043857872 -0.04844669
000050 22 c9 24 bd 80 54 e7 bd 8d f8 40 bd 17 36 f3 3d
       -0.040230878 -0.11295414 -0.047112036 0.11875551
000060 36 70 d1 3c b1 37 09 3d eb 74 8c bb 08 e6 fe 3c
       0.025566202 0.033500377 -0.0042863986 0.031115547
000070 49 93 e1 3d 77 3e 8a 3d 2a 8a 0a bd d7 ca 3a 3d
       0.110144205 0.067501955 -0.03382317 0.0456036
000080 a8 b3 b9 bd f4 eb b3 bd b1 94 91 3d 8f 92 cb bd
       -0.0906747 -0.08785239 0.07108439 -0.09940063
000090 e8 bf a7 3d 5c af d1 3d 3c 73 59 3d 0a 8e b8 3c
       0.081909 0.10238525 0.05308841 0.022528667
0000a0 2f 66 a9 3d 67 09 0c bc a9 2f ef 3d 4f 72 b5 3d
       0.08271443 -0.008547164 0.11679012 0.08859693
0000b0 0b ed db 3d 16 1b f5 bd ba 9b 8d 3d de 9b e8 3c
       0.10738572 -0.11968057 0.06914468 0.028394636
0000c0 f4 5d 40 3d 42 a9 32 3d a9 dd c3 bd ec ee 56 bd
       0.0469646 0.043618448 -0.09563763 -0.052473947
0000d0 64 52 bb bc b5 d4 59 bc c3 44 37 3d 5b da 9d 3d
       -0.022866435 -0.013295342 0.04474331 0.077076636
0000e0 81 53 78 bc 0a ea a1 bd 7e 25 4f 3d 01 ee ff bb
       -0.015156628 -0.079059675 0.050572865 -0.0078103547
0000f0 d4 fb e6 bd 12 44 85 bd 14 de 9c 3c b2 19 56 bc
       -0.11278501 -0.06507124 0.019148864 -0.01306765
000100 01 a5 6a bd 31 89 8d 3d 5f b7 01 be 65 c8 20 3d
       -0.057286266 0.06910933 -0.12667607 0.03925361
000110 45 a9 92 bd 10 89 99 bd 30 23 0a 3d b4 a9 bb 3d
       -0.07161192 -0.07496846 0.033724964 0.09163228
000120 72 70 b2 3d 6c b4 6b bd c2 e7 d0 bd 3a 48 45 bd
       0.087128535 -0.05754511 -0.10200454 -0.048164584
000130 c6 7f c1 bc 08 ff 89 bd ac db bd bd 50 52 de 3d
       -0.023620497 -0.067380965 -0.09270415 0.108555436
000140 e6 ab e0 3d 57 c9 ad bd d2 f1 d9 bd c4 39 ca bc
       0.10970287 -0.08485668 -0.10641827 -0.024685748
000150 86 a5 ee 3d 8f 44 bb 3d 89 ac db bd 67 7b a2 3d
       0.11652665 0.09143936 -0.10726268 0.079336934
000160 ae e5 89 3d 79 aa 81 3d 56 f7 5a bc 50 11 c4 bd
       0.06733261 0.06331343 -0.013364634 -0.095736146
000170 e4 e2 a0 bd d7 c9 2b 3d a3 20 41 3d ce fd 75 3d
       -0.07855776 0.041940536 0.047150265 0.0600565
000180 0a 83 89 bd 59 a0 f6 3b 8e 61 59 3d 61 ea d8 3d
       -0.06714447 0.007526439 0.05307155 0.10591579
000190 d2 f2 0b be 47 9a 07 be da f9 8a 3d 54 07 7b bd
       -0.13666847 -0.13242446 0.06785937 -0.061286286
0001a0 7b 55 16 37 8f af ca 3d 51 18 b4 3d 1f d7 a2 bd
       8.960599e-06 0.098967664 0.087937005 -0.07951187
0001b0 f9 0d e4 bd f0 91 96 3c b6 af 1a bd 45 c3 19 3e
       -0.111354776 0.018380135 -0.037765227 0.15015896
0001c0 dc 8f 97 3d 3d 05 09 be ee a5 2d bd 5b 02 ae bd
       0.07400486 -0.13380904 -0.04239457 -0.08496543
0001d0 f9 e1 9f 3d 70 6c c0 bd eb de 96 bc 47 64 bb 3d
       0.07806773 -0.09395683 -0.018416842 0.09149986
0001e0 04 57 bd bb 61 d3 8d bd 1d fa ea bb be f1 b3 ba
       -0.0057781953 -0.06925083 -0.007170929 -0.0013728661
0001f0 01 18 e1 bc 15 da eb bd e8 4b 07 be a3 9a 83 3d
       -0.027477266 -0.11516205 -0.1321255 0.06425979
000200 48 cd 9f bc e5 e8 a8 bd 23 93 88 3c a9 57 64 3d
       -0.019507065 -0.08247546 0.016671723 0.05574766
000210 34 11 e8 3d 37 8a f2 3d 11 90 ef bd d5 c7 c8 3c
       0.11331406 0.11842769 -0.116974 0.02450935
000220 f1 d1 97 3b 4d 95 e5 3d fb d1 82 3c 38 a6 dd 3d
       0.0046331813 0.112101175 0.015969267 0.10822719
000230 9d 86 c8 bd cd cd 59 bd cd 61 e7 3c 9c dd e9 bd
       -0.097913004 -0.053174783 0.028244877 -0.11419222
000240 ea b2 fb 3d e9 9a 26 3d f3 53 5b 3d ba 09 b2 bd
       0.122899845 0.040675078 0.053546857 -0.086932614
000250 c3 31 9b 3d 22 37 89 bd 96 9d f5 bc 64 bd 66 bd
       0.07577851 -0.06699969 -0.02998237 -0.05633296
000260 20 54 e5 bd 5f 3d b4 3d e2 fa 6b bd b4 05 62 3d
       -0.11197686 0.08800768 -0.057612307 0.05518122
000270 12 cb e6 bd 85 31 c8 bd de a6 ab bd 98 89 da bd
       -0.11269201 -0.0977507 -0.08381437 -0.10670775
000280 4d 71 35 3b 0e c4 32 3d bd 4b 92 bd d7 9e 69 bd
       0.002768594 0.043644004 -0.07143352 -0.057036247
000290 6a 12 ed 3d 3f 14 df 3d 69 05 11 bd 23 7c ed bd
       0.11575778 0.108925335 -0.03540555 -0.11595943
0002a0 ae 00 71 3d a5 fe 98 3d b2 05 3b ba 1c c2 a0 bd
       0.05883854 0.074704446 -0.00071343326 -0.078495234
0002b0 31 7a bb bd f7 85 59 3c 8a 1c 51 3c 1b 36 df bc
       -0.091541655 0.013276569 0.012763152 -0.02724748
0002c0 89 a9 82 3d 8e f1 ee 3d cf a5 cd 3d 99 42 b6 bd
       0.063799925 0.11667167 0.10041391 -0.08899421
0002d0 f1 d7 a3 3d 07 05 80 bd 26 86 db 3d 79 d2 e1 bd
       0.08000172 -0.06250959 0.10718946 -0.110264726
0002e0 91 fd 0e bc 3e 55 9a 3d f8 4a c4 bc d1 60 8b 3c
       -0.008727447 0.0753579 -0.02396153 0.01701394
0002f0 51 27 be bd 49 aa 50 bd 3c 53 70 bd 77 b1 b3 3d
       -0.09284843 -0.050943647 -0.05867313 0.08774083
000300 7b 4f d2 3d 40 5d e5 3b b2 cb d9 bd af 1f ab 3b
       0.10269066 0.0069996417 -0.10634555 0.005222283
000310 d4 ba da 3d cd 5f bf bb f9 14 e4 bd c7 40 41 3d
       0.10680166 -0.0058402778 -0.11136813 0.047180917
000320 df 17 f1 3d 34 0d 95 3d cc a2 03 3e cc b0 6e bd
       0.11772131 0.07277909 0.12855071 -0.058274075
000330 04 67 64 3d 2c ad 62 bc 73 8c 89 3b 1e 5f 01 3e
       0.055762306 -0.013835233 0.004197651 0.1263394
000340 e3 03 37 3d 38 37 78 bd b7 12 a9 3d 8e c6 a7 bd
       0.04468144 -0.060599536 0.08255523 -0.08192168
000350 10 ae 9e bc 28 ed fe bd 19 d4 0d bd 46 97 4f bc
       -0.019370109 -0.12447578 -0.0346261 -0.012670344
000360 6e ed 0f ba d7 fd 60 3d c4 47 28 3d d4 70 07 3d
       -0.0005490397 0.05492958 0.041084066 0.033066586
000370 3f 67 9b 3d 29 b8 80 bd 5b df 5b 3d bd cd b4 3d
       0.07588052 -0.06285126 0.053679805 0.08828304
000380 2e 0e 65 bc 80 85 83 bc ec 49 40 3d 2a 00 ee bd
       -0.0139804315 -0.016054869 0.046945497 -0.11621125
000390 44 ed 12 3e d0 8b ad 3d fc cf a4 bd 24 b4 16 bd
       0.14348322 0.08473933 -0.08047482 -0.03679289
0003a0 69 1e b0 bd 5a 06 92 bd b3 7b 1c 3d 9b 53 0e bb
       -0.0859955 -0.07130118 0.038203906 -0.0021717313
0003b0 55 be c6 3d 01 62 a7 3d b4 44 d9 3d 01 c2 f8 bc
       0.09704272 0.0817299 0.10608807 -0.030365946
0003c0 98 5a b0 bd 6c 18 17 bd fb 4a fb 3d 1c f5 d1 bd
       -0.086110294 -0.036888525 0.12270161 -0.10251829
0003d0 78 2c ee 3d c6 ad ab 3d b0 9f 8a bd d6 8d b9 3a
       0.116295755 0.08382754 -0.06768739 0.001415665
0003e0 49 4f 86 bd 12 6d ba 3d 7d d5 b4 ba 8c 41 f8 3c
       -0.06558091 0.09102835 -0.0013796535 0.030304693
0003f0 4e 54 d7 bc 00 26 d4 3d 38 ff cd 3b 21 52 b8 3d
       -0.026285317 0.103588104 0.006286528 0.0900004

transformer.layers.0.attention.W_q.bias f4 [64]
000000 fc 87 14 3c 61 0d 8d bc 20 c8 7a 3b de 85 67 3c
       0.009065624 -0.017218294 0.0038266256 0.0141310375
000010 b0 bf 71 3c 98 3b 81 bc f8 9d ac 39 50 ff ab 3c
       0.0147551745 -0.015775487 0.00032924092 0.020995766
000020 b8 fa 8f bc 5c b2 59 3a f7 a6 6f 3c a1 40 68 bb
       -0.017575607 0.00083044707 0.01462721 -0.0035438912
000030 4f 9e 7c bc 1f 97 fc ba 94 13 2c 3c 43 12 c7 bb
       -0.015418603 -0.0019271112 0.010502715 -0.006075175
000040 37 74 be 3a a8 e5 b1 bc d1 ef c3 b8 1c 8e dc bc
       0.0014530484 -0.021715954 -9.342994e-05 -0.026923232
000050 3e 4d 5d 3c a8 53 71 3c 72 9f 72 3a e7 00 59 3b
       0.0135071855 0.014729418 0.00092553266 0.003311211
000060 2d 6e 56 3c f6 19 1a 3c a1 e0 8e bb 6a 9f 83 3b
       0.013087791 0.009405604 -0.004360274 0.0040168064
000070 42 e2 8b 3c 97 66 5b 3c a3 63 96 3b 84 66 45 bc
       0.017075662 0.013391159 0.0045895143 -0.012048367
000080 b3 ad 14 ba f2 5a 87 bb 2b fa dd ba 43 af e5 3c
       -0.0005671635 -0.0041307146 -0.0016935518 0.028037673
000090 17 24 be bc f4 07 cf bb 34 a8 75 3c 53 40 68 3c
       -0.023210568 -0.0063180868 0.014993716 0.014175492
0000a0 84 ef 22 bc 55 5a a5 3b 81 6f 42 3c 03 ec 01 3c
       -0.0099448 0.005046169 0.011867405 0.007929805
0000b0 46 04 cb bb 36 d0 4d 3c 68 75 bc bb e1 b7 9c 3c
       -0.006195578 0.012561848 -0.0057513006 0.019130649
0000c0 19 15 00 bc 94 2a c7 bc 2b f3 08 3c e7 42 d8 b9
       -0.00781753 -0.024312295 0.008358757 -0.00041248577
0000d0 0a d6 ed 3a f6 91 a8 3c 43 de d1 bc df 24 95 3c
       0.0018145454 0.020577412 -0.025618678 0.018206058
0000e0 b9 dd 15 3c bc 28 7f 3b 57 f5 97 bb 78 f8 1a 3b
       0.009147101 0.0038934192 -0.004637401 0.0023646634
0000f0 7b 18 ae 3a 3f 33 63 bb e1 b6 b6 bb c5 04 6c bc
       0.0013282442 -0.0034667996 -0.005576 -0.014405434

transformer.layers.0.attention.W_k.weight f4 [64, 64]
000000 38 a6 46 3d d6 f9 fb 3d 66 3d 2f bd 39 4e 5e bd
       0.048498362 0.12303512 -0.042783163 -0.054273818
000010 77 02 1f 3d 65 dd ee 3d bc 05 7e bd 61 e8 b4 3d
       0.03882071 0.116633214 -0.062017187 0.08833385
000020 1e 8d 5d bd fd 32 38 bd 7a 4a 02 bd 20 a0 06 3d
       -0.054089658 -0.0449705 -0.031809308 0.03286755
000030 45 a9 e6 3b 2e 9c 45 3d 33 a8 b1 3d f2 7e 57 bd
       0.0070392215 0.048244648 0.086746596 -0.0526113
000040 bb 7d 40 3d ec d9 1b bd a4 df c1 bc f4 c2 12 bd
       0.046994906 -0.038049623 -0.02366621 -0.035830453
000050 ba 84 37 3c 18 1e 2d bd 47 3f fc 3d e8 df 66 3c
       0.011201078 -0.042265028 0.12316757 0.014091469
000060 3b 86 db 3d 69 d0 10 3b 92 5c 20 bd 49 04 04 bd
       0.10718962 0.0022096878 -0.039150782 -0.03223065
000070 67 53 69 bd 90 af 15 3b 56 3a ba 3d ba 08 75 bb
       -0.056964304 0.002284024 0.09093158 -0.0037389235
000080 88 84 c4 3d e4 b2 f5 bd 95 fe 49 bd 54 17 6e 3d
       0.09595591 -0.11997011 -0.049315054 0.058127716
000090 ba 91 59 3d f8 db 10 3c dd 1a ae bd 11 6d 90 bc
       0.05311749 0.008841507 -0.085012175 -0.017630132
0000a0 51 23 1b bd 01 6e 92 bd d7 00 08 bc e3 2f c6 bc
       -0.037875477 -0.07149888 -0.0083009815 -0.024192756
0000b0 8a 1e 38 bd 9e 1f 68 bd c0 0f 38 bd e7 23 36 bd
       -0.044951 -0.056670777 -0.044936895 -0.044467833
0000c0 16 1f c9 3c d0 0e 36 bd 45 13 0b 3d dd b7 56 bc
       0.024550956 -0.04444772 0.033953924 -0.01310536
0000d0 83 b5 d4 bd a6 9b 37 3d a7 db c8 bd a3 1c 3a 3e
       -0.10386183 0.044826172 -0.0980752 0.18174987
0000e0 80 2c 68 bd 06 83 85 3d b9 6c 0d bd 9c ef ea bc
       -0.056683064 0.06519131 -0.034527514 -0.028678708
0000f0 98 fb dd bd b3 47 e6 bd 02 45 b6 3d 37 48 f4 ba
       -0.10839003 -0.11244144 0.08899881 -0.0018637244
000100 b7 bf ea bd fd e0 15 be 54 51 80 bd ca ca f2 bb
       -0.11462348 -0.14636607 -0.06265512 -0.0074094282
000110 de f3 67 3d 85 56 c6 bc 4c cf e0 bc 99 a2 a5 bd
       0.056629054 -0.024211178 -0.027442597 -0.08087654
000120 a9 56 d6 bd 48 e5 78 3c 7a 54 11 bd a5 b5 d4 3c
       -0.10465748 0.015191384 -0.035480954 0.025965521
000130 14 f7 00 be e6 b7 79 bd d9 e1 92 bd 1e 17 27 3d
       -0.12594253 -0.060966395 -0.07171983 0.04079353
000140 21 44 d4 3d c2 4e 3f bd 21 57 13 bb 2e 98 7a bc
       0.10364557 -0.04670597 -0.0022482353 -0.0152950715
000150 b6 42 dc 3c 2f bf cf 3c 78 68 65 bc 08 ba 8b bd
       0.026887279 0.025359718 -0.014001958 -0.06822592
000160 8b 49 c4 bd 85 13 ea 3d ed f2 1b bc 0b 7d b1 3d
       -0.0958434 0.11429504 -0.009518367 0.08666428
000170 66 d6 eb bd 6a 4a ef ba 3d 23 74 bd f0 26 a0 3d
       -0.11515503 -0.001825643 -0.05960392 0.07819927
000180 51 0d 99 bd ab 47 cc 3d d1 43 8e 3d 66 ee ca bd
       -0.07473243 0.09974607 0.06946529 -0.09908752
000190 83 ef b6 3d f5 89 0b bc b5 37 f9 3d 95 dc d4 bc
       0.08932402 -0.008516778 0.121688284 -0.025984088
0001a0 7a 1a 2d 3c 43 37 04 3d 3d 5d f1 3d f1 23 8e bd
       0.010565395 0.032279264 0.11785362 -0.06940449
0001b0 84 4f 8c 3d 67 bd c7 bc 5b ab a5 bd 98 8d b6 3d
       0.06851104 -0.024382306 -0.08089324 0.089137256
0001c0 5b 13 c1 bd 8f 3e 8b bd 6e 3f b1 bd d7 45 d9 3d
       -0.0942752 -0.067990415 -0.086546764 0.10609024
0001d0 b1 7e 9d 3d ba d4 40 bd 36 f7 83 bd 91 7f 66 bc
       0.0769018 -0.04707787 -0.06443636 -0.0140685
0001e0 8e f4 ae 3d 27 d0 82 3b 0c f3 e8 bd 05 d0 ad bc
       0.08542739 0.003992099 -0.113744825 -0.021217356
0001f0 ae fb cf bc e1 de 88 3d 78 25 bb 3d 80 2f f6 3c
       -0.025388565 0.06683136 0.09138006 0.030051947
000200 99 ce b2 bc 43 e8 26 3d 8e 5a c1 3c 44 83 02 bd
       -0.021827029 0.040748846 0.02360275 -0.031863466
000210 7d 59 91 3d a0 7c 55 3d 64 52 01 3d 68 19 13 bc
       0.07097147 0.052120805 0.031572714 -0.008978225
000220 c2 9c b0 bd f1 63 08 be a0 90 91 3d e8 a3 c5 bd
       -0.08623649 -0.13319375 0.07107663 -0.09650403
000230 35 43 06 3d f3 89 f2 3d 43 f3 b8 bd 3f ca d9 3c
       0.032778937 0.11842718 -0.090307735 0.026585696
000240 3a a9 3b 3d c2 b5 a8 3d f0 af ac bd 00 2f d0 bd
       0.045815684 0.082377926 -0.08431995 -0.101652145
000250 f8 2c 8d bd 2a 35 f1 bc 97 c1 f7 bd d7 5f e4 bb
       -0.06893343 -0.029444296 -0.12097471 -0.006969433
000260 fc 20 26 bc f9 fa de 3c b6 65 c1 3d dd c0 8b bd
       -0.0101397 0.027219282 0.09443228 -0.06823895
000270 2a 81 06 bd bc 3c ca bd 80 1f 04 3d ce 8b cd bd
       -0.032838024 -0.098748654 0.032256603 -0.10036431
000280 5c 41 f7 bd b4 4b 72 b9 2f 07 db bd 9e e6 20 3d
       -0.12073013 -0.0002310712 -0.106947295 0.039282434
000290 b3 eb 86 bd 83 9e 8d 3d fe a4 c5 3d 33 c8 ec 3c
       -0.06587925 0.06914999 0.096506104 0.028904056
0002a0 15 0e 72 3d 05 0d 0d be e6 4c a7 bd 89 38 2a 3e
       0.05909546 -0.13774498 -0.08168964 0.16623129
0002b0 a4 79 d6 3b f4 b7 9c 3d ca 6a 0f be ae 15 f6 ba
       0.0065452624 0.07652274 -0.1400558 -0.0018774772
0002c0 fc 7b 1b bd e1 dc 94 3d 65 69 bc bd b4 d2 0d 3d
       -0.037960038 0.07268692 -0.0919979 0.03462477
0002d0 4d 78 8e bd 24 29 b4 3c 4a dc e4 bd 0f 75 a8 3d
       -0.06956539 0.021992274 -0.11174829 0.08225452
0002e0 ac 60 00 3e 05 af 2d 3d 35 0b a0 bd b4 28 d6 bc
       0.12536877 0.04240324 -0.078146376 -0.026142456
0002f0 2d 7f bb bd 2e 66 9f 3d a2 97 06 3a 8e 57 93 3d
       -0.09155116 0.07783161 0.00051342894 0.07194434
000300 0a 94 e7 bd f2 53 c4 3d 64 0f 3d 3d 3a 7e 52 bd
       -0.11307533 0.09586324 0.046157256 -0.05138991
000310 c6 2e 81 3d 3d 41 cf 3d 23 47 80 bd 7b cf d9 bb
       0.063077495 0.10119865 -0.06263568 -0.006647048
000320 a6 d6 c5 bd 23 43 0c 3d d9 a4 ea bd 25 bc b2 bb
       -0.096600816 0.034243714 -0.114572234 -0.0054545575
000330 20 73 8b 3d 85 e8 a2 3d 40 34 b0 3b 74 b6 40 3d
       0.06809068 0.07954506 0.0053773224 0.047049
000340 1e 03 54 3d bf 5d a0 3d 6b a6 02 3e 93 0b e6 3d
       0.051760785 0.07830381 0.12758796 0.11232676
000350 57 b2 be bd 71 0b 9f 3c 13 8c e9 bd 6d 27 64 3d
       -0.093113594 0.019414635 -0.1140367 0.05570166
000360 63 38 9e 3d 22 a0 80 3d f7 7d df 3c 87 b7 df bd
       0.07725599 0.06280543 0.027281744 -0.10923677
000370 19 a9 e7 bc ab 01 5f 3d f1 7f de 3d 3c a0 3c bd
       -0.028278874 0.05444495 0.10864247 -0.04605125
000380 de 35 6f bc 3f a8 82 3d 45 f8 57 bd 77 4f 69 3c
       -0.014600245 0.06379747 -0.052727003 0.014240137
000390 87 00 cb bc 61 fa f9 bd f6 2e 28 3d 14 43 c9 bb
       -0.024780525 -0.12205959 0.04106041 -0.0061420295
0003a0 3b ce c8 3d 75 8f 60 bc b5 22 07 bd ae 92 be 3c
       0.0980496 -0.013706078 -0.032992084 0.023263302
0003b0 f2 a4 a9 bd db 77 5e 3d 36 65 8c 3d bb 6f 38 bd
       -0.08283414 0.05431352 0.06855242 -0.04502843
0003c0 29 13 02 be 7a 4d 8c bd b0 a0 bb bc 76 99 e4 3d
       -0.12702622 -0.06850715 -0.02290377 0.11162083
0003d0 c4 8a 9c 3a 77 2f c2 3d 83 08 b9 bc 4e 55 7b 3d
       0.0011943211 0.094817095 -0.022587067 0.06136065
0003e0 0f 61 8b 3d d1 94 cf bd 2c ce a9 bc 98 cd 08 3e
       0.06805622 -0.10135806 -0.020728193 0.13359678
0003f0 e3 91 24 3d 5c 0b 8f bd eb 24 bf 3d 42 81 81 3d
       0.04017819 -0.069845885 0.093332134 0.06323482
