results/best_models/sparse_ftt_plus_regression_all_layers_weights_seed_42.pt (torch, 862199 bytes, 138 tensors)

feature_tokenizer.num_tokenizer.weight f4 [8, 64]
0	0xbd7e83f1	-0.062137548
1	0x3b932565	0.0044905418
2	0x3de38542	0.11109401
3	0x3db5ce89	0.08877284
4	0x3df6d740	0.120527744
5	0x3d2715e6	0.04079237
6	0xbdac9ee1	-0.08428741
7	0xbd1f60e1	-0.03891075
8	0xbd2cc7ab	-0.042182606
9	0xbdbe1ec7	-0.09283214
10	0xbd350dca	-0.044202603
11	0xbdf1605a	-0.11785956
12	0xbd4bde1e	-0.049772374
13	0xbdf5ba1a	-0.11998387
14	0x3e01c853	0.12674074
15	0x3ca23c21	0.019804062
16	0x3df183d9	0.11792726
17	0x3d86c820	0.065811396
18	0x3defc3d0	0.1170727
19	0xbd32b381	-0.04362822
20	0xbd6f2b5e	-0.058390968
21	0xbd80b33c	-0.06284186
22	0xbddb0dca	-0.106959894
23	0xbb1ceda7	-0.0023945363
24	0x3caa4a8b	0.020787498
25	0x3d80fba7	0.06297999
26	0xbd07fed6	-0.033202015
27	0x3d30a1b3	0.04312296
28	0x3d5e4b82	0.05427123
29	0x3cbc8158	0.023010895
30	0x3ce74f94	0.028236188
31	0xbd52802d	-0.05139177
32	0x3d957fec	0.0729979
33	0xbdf34b85	-0.118796386
34	0x3c36afb1	0.0111502865
35	0x3d79af36	0.06095811
36	0x3d97c15d	0.07409928
37	0x3d756127	0.059907105
38	0xbcc71aa5	-0.024304697
39	0x3dad0d27	0.08449774
40	0xbde9d0ab	-0.114167534
41	0xbcbb1d7a	-0.022841204
42	0xbd495fa9	-0.049163494
43	0x3d905d9e	0.07049106
44	0x3de0d7ac	0.10978636
45	0xbd1d7bbc	-0.03844808
46	0x3cd7a249	0.0263225
47	0xbc6e102f	-0.014530226
48	0xbd2a9787	-0.041648414
49	0x3d5a7a3d	0.05333923
50	0x3d12ddd5	0.035856087
51	0xbd73a6ca	-0.059485234
52	0x3cba5928	0.022747591
53	0x3ded3ef6	0.115842745
54	0xbdb5949a	-0.08866234
55	0xbcc3385b	-0.023830583
56	0xbddd5664	-0.10807493
57	0xbd0cb56a	-0.034352697
58	0x3df7fd6e	0.12108885
59	0x3d9b0fb3	0.07571354
60	0xbdeffc38	-0.11718029
61	0xbddb7016	-0.10714738
62	0x3c0c3829	0.0085583115
63	0xbc8c6018	-0.017135665
64	0x3db83b8f	0.08995735
65	0xbcef01a3	-0.029175585
66	0x3db8a26e	0.09015356
67	0xbd9aebd1	-0.0756451
68	0xbc8ece69	-0.017432408
69	0xba4adb4d	-0.0007738367
70	0xbd85e96c	-0.06538662
71	0x3b041c12	0.0020158333
72	0xbcd3dfd3	-0.025863564
73	0xbd67fb16	-0.05663594
74	0xbdc7c65a	-0.097546294
75	0x3b96f92d	0.004607341
76	0x3df493b8	0.119422376
77	0x3d3b96f3	0.045798253
78	0xbdc92a43	-0.09822514
79	0xbd66d9c4	-0.05636002
80	0x3d9b2a4f	0.07576429
81	0xbd352d11	-0.04423243
82	0xbc51880b	-0.012788783
83	0xbd6f5633	-0.058431815
84	0x3d7d26cf	0.06180459
85	0xbda3e3cc	-0.08002433
86	0xbdf4ae7b	-0.11947342
87	0xbdb248d2	-0.087052956
88	0xbdd911e2	-0.10599114
89	0x3bfb22ab	0.007664045
90	0x3c3a0b98	0.011355303
91	0xbd2737b2	-0.0408246
92	0x3d5fa1c1	0.05459762
93	0x3c563d59	0.01307615
94	0x3d06603f	0.03280663
95	0x3d887c3b	0.0666432
96	0x3cae331f	0.02126461
97	0x3e0270b2	0.12738302
98	0x3db9f7f4	0.090804964
99	0xbd994aa9	-0.074849434
100	0x3dbd2307	0.092351966
101	0xbc583ece	-0.013198568
102	0xbc0bb254	-0.008526403
103	0x3c66c950	0.014086083
104	0xbddc290c	-0.107500166
105	0x3da0e733	0.07856598
106	0x3da9c713	0.082899235
107	0x3df9aec6	0.121915385
108	0x3cb4ad03	0.022055155
109	0xbced3e1e	-0.028960284
110	0xbc8b1124	-0.016975947
111	0xbd2f1285	-0.04274227
112	0xbdeb501d	-0.1148989
113	0x3d376ded	0.044782568
114	0x3c743e6b	0.01490746
115	0xbd257f77	-0.040404763
116	0xbd914d3a	-0.07094808
117	0xbd0234d4	-0.031788662
118	0x3d08e4a1	0.033421163
119	0x3db8599e	0.09001468
120	0x3d51e5ff	0.051244732
121	0x3dcc3a8c	0.099721044
122	0x3dcba1b9	0.099429555
123	0xbd864359	-0.06555814
124	0xbb81dbdc	-0.003962977
125	0xbdd3e4cc	-0.10346374
126	0xbd972123	-0.07379367
127	0x3d461670	0.04836124
128	0x3d325a5d	0.04354321
129	0x3d38efd2	0.045150585
130	0x3dddc38b	0.108283125
131	0x3d298f16	0.041396223
132	0xbd8f3e53	-0.06994309
133	0xbcf6f958	-0.030148193
134	0x3c5c4b1a	0.01344564
135	0x3d813324	0.063085824
136	0xbd80befe	-0.06286429
137	0xbd49e204	-0.04928781
138	0x3d2f2d9f	0.042768117
139	0x3d3a5e27	0.045499947
140	0x3df02b8a	0.117270544
141	0x3dd52c50	0.104088426
142	0xbd57c067	-0.052673724
143	0x3d3c10af	0.04591435
144	0xbd9f13bf	-0.07767438
145	0xbc1069a1	-0.008814246
146	0xbb9585b0	-0.004563056
147	0x3d052317	0.032504167
148	0x3de55306	0.11197476
149	0xbdc68ced	-0.09694848
150	0x3dee120b	0.11624535
151	0x3da9a5d2	0.08283581
152	0xbd527e05	-0.051389713
153	0xbd238136	-0.039918147
154	0xbd09ed60	-0.033673644
155	0x3d9a8b0b	0.075460516
156	0xbcfea843	-0.031086093
157	0x3d1c6319	0.038180444
158	0xbd481fdd	-0.048858512
159	0x3dc5a7ea	0.09651168
160	0xbc9ccb4b	-0.019139906
161	0x3dfd4d7d	0.12368295
162	0xbdb98a85	-0.09059624
163	0xbd0be145	-0.03415038
164	0x3d980e8b	0.07424649
165	0x3d2033cc	0.039111897
166	0xbd6e8b8f	-0.058238562
167	0xbde12cfa	-0.10994907
168	0xbdae19b4	-0.08500996
169	0xbdca5827	-0.09880095
170	0xbd91933e	-0.07108162
171	0xbd954697	-0.072888546
172	0xbd060e08	-0.032728225
173	0x3dd111d3	0.10208478
174	0xbcee66af	-0.029101698
175	0xbda3c4d7	-0.079965286
176	0x3d81537d	0.06314752
177	0xbd9ed793	-0.07755961
178	0xbd88472d	-0.06654201
179	0xbc8425fa	-0.01613139
180	0xbca7efd0	-0.020500094
181	0xbd9ffb5c	-0.07811615
182	0xbdcc4597	-0.09974211
183	0xbdef897f	-0.11696147
184	0xbd45a2e9	-0.048251066
185	0x3d83b8cc	0.064317316
186	0x3c584d41	0.0132020125
187	0x3dc8e5a6	0.09809427
188	0x3cbbf576	0.022944193
189	0xbdb28374	-0.08716479
190	0x3c608c8f	0.013705387
191	0xbcc4d958	-0.024029419
192	0x3d912373	0.070868395
193	0x3d01f10c	0.03172402
194	0x3e001aef	0.12510274
195	0xbdd5bd61	-0.10436512
196	0xbd83e09b	-0.064393245
197	0xbddb95fa	-0.10721965
198	0x3c6e5266	0.0145460125
199	0xbd9b2137	-0.075746946
200	0xbd372d93	-0.044721197
201	0x3df7a9b5	0.12092916
202	0xbd240eeb	-0.04005329
203	0x3d6ef1f5	0.058336217
204	0x3da9ab61	0.08284641
205	0x3db8ad04	0.09017375
206	0x3dda241a	0.10651417
207	0x3da39f4e	0.07989369
208	0x3c136ed2	0.00899859
209	0x3ddff311	0.10935033
210	0x3df6fbe6	0.120597646
211	0xbdb93650	-0.090435624
212	0x3cb717bf	0.02235019
213	0x3dac9d8c	0.08428487
214	0xbdb9b822	-0.09068324
215	0x3d321b12	0.043482848
216	0x3db0a892	0.08625902
217	0x3c4a18a1	0.012334974
218	0xbd1167d8	-0.035499424
219	0xbc03d114	-0.008045454
220	0x3dea185c	0.114304274
221	0xbdc5e4dc	-0.09662792
222	0x3d4208fc	0.04737185
223	0xbd8125c8	-0.06306034
224	0x3dae9ece	0.08526383
225	0xbd359d7a	-0.044339634
226	0x3cf38c91	0.029730113
227	0x3d93fa14	0.07225433
228	0xbc33bd95	-0.010970493
229	0xbc89590c	-0.016766094
230	0x3dd9e805	0.10639957
231	0x3df88bb8	0.12136024
232	0x3d5bb983	0.053643715
233	0x3c1c0d4d	0.0095246555
234	0x3b8c9eaa	0.004291375
235	0xbdb4f7b5	-0.08836309
236	0x3dc41658	0.09574574
237	0x3d3bc835	0.04584523
238	0x3dc33618	0.09531802
239	0xbd95a2fe	-0.07306479
240	0x3cf66df8	0.030081734
241	0x3cdee435	0.027208427
242	0xbd20c95e	-0.03925454
243	0xbc52e89c	-0.012872841
244	0x3d03e9f8	0.032205552
245	0xbd150797	-0.03638419
246	0x3df17ad7	0.11791008
247	0xbdf3951d	-0.118936755
248	0xbcc33bce	-0.023832228
249	0xbd70f9a1	-0.058831815
250	0x3dbe733d	0.09299324
251	0xbd4fd442	-0.050739534
252	0xbcb7c122	-0.02243096
253	0x3dd29ff8	0.10284418
254	0xbdd117d4	-0.10209623
255	0xbd4b5e0a	-0.04965023

feature_tokenizer.num_tokenizer.bias f4 [8, 64]
0	0xbe02407e	-0.12719914
1	0x3dfba826	0.12287931
2	0xbdc382dd	-0.095464446
3	0x3dbff67e	0.093731865
4	0xbda40137	-0.08008044
5	0x3d092fcf	0.03349286
6	0xbba87871	-0.005141311
7	0x3dc4afa1	0.09603811
8	0xbdf7c9ca	-0.12099035
9	0x3ddc2fb4	0.10751286
10	0x3e021022	0.12701467
11	0x3d1bc0aa	0.038025536
12	0x3defddf3	0.11712255
13	0x3dc74588	0.09730059
14	0x3bef4bfe	0.00730276
15	0x3d90632a	0.07050164
16	0x3c693780	0.014234424
17	0x3ccd99b3	0.025097704
18	0xbdbc6005	-0.09198002
19	0xbce10b03	-0.027471071
20	0xbd762048	-0.06008938
21	0xbd8f3c68	-0.069939435
22	0xbd9ded62	-0.07711293
23	0xbd58776b	-0.05284826
24	0x3cecca5d	0.028905088
25	0xbc2e95d4	-0.010655839
26	0x3d625083	0.055252563
27	0x3d59b3c1	0.053149942
28	0xbd1c12bb	-0.0381038
29	0x3db450b1	0.08804453
30	0xbdbd8b1c	-0.09255049
31	0xbd8d7c3d	-0.06908462
32	0x3df02e9e	0.117276415
33	0x3d569904	0.05239202
34	0x3d71de69	0.059049997
35	0xbded40df	-0.11584639
36	0x3db9e91f	0.090776674
37	0xbdd4c4ad	-0.103890754
38	0x3ca05800	0.019573212
39	0xbd8c2228	-0.06842452
40	0x3d30a41a	0.04312525
41	0xbd9274bc	-0.071511716
42	0xbddbcbfa	-0.10732265
43	0xbde2f043	-0.110809825
44	0xbdc80da0	-0.09768224
45	0xbd3279d1	-0.043573204
46	0x3b9374be	0.0045000007
47	0xbd2cb287	-0.042162444
48	0xbd2d4f65	-0.042312045
49	0x3c9f0550	0.019411713
50	0x3dd761d3	0.10516705
51	0xbd19182d	-0.03737657
52	0x3dd420cb	0.10357817
53	0xbd5c92bc	-0.053850874
54	0x3dc96f5e	0.09835695
55	0xbd55ec1f	-0.052227136
56	0xbd7e4a85	-0.062082786
57	0xbcfd4e4e	-0.030921128
58	0xbce7ce7b	-0.0282967
59	0xbda5e941	-0.0810113
60	0x3da9942e	0.08280216
61	0xbdd905e1	-0.105968244
62	0xbba11edb	-0.0049170083
63	0xbde6ebf5	-0.11275474
64	0xbd9a32f3	-0.07529249
65	0x3c40f747	0.0117777055
66	0xbc84ef9b	-0.016227534
67	0xbcc527c5	-0.024066815
68	0x3bf282bd	0.007400839
69	0xbd11f2ae	-0.035631828
70	0xbddb5756	-0.107100174
71	0xba8b5529	-0.0010630238
72	0x3d1403e4	0.036136523
73	0x3db6abae	0.08919464
74	0xbd96aef7	-0.07357591
75	0xbdb3eba7	-0.087851815
76	0xbdc94945	-0.09828428
77	0x3d74aada	0.05973325
78	0xbde47583	-0.11155226
79	0x3dc5456c	0.09632382
80	0x3d529ea1	0.05142081
81	0x3db49c19	0.08818836
82	0xbd428245	-0.047487516
83	0x3da603b5	0.08106176
84	0xbd68d71c	-0.05684577
85	0xbc88990f	-0.016674547
86	0x3dc67e3d	0.09692047
87	0xbd8e4fe8	-0.06948835
88	0xbcfa43c4	-0.030549891
89	0x3c8a131e	0.016854819
90	0x3d287244	0.041124597
91	0xbc933174	-0.017967917
92	0xbdcc9897	-0.09990042
93	0xbcf4aeb9	-0.02986847
94	0x3d29356a	0.041310705
95	0xbdbde400	-0.09272003
96	0xbdd017b5	-0.10160772
97	0xbd23e73e	-0.04001545
98	0x3cb627b7	0.022235734
99	0xbd4353d9	-0.047687385
100	0x3d2732e6	0.040820025
101	0x3cad5747	0.021159781
102	0x3dc3a976	0.095538065
103	0xbc829c7e	-0.015943762
104	0xbd817e22	-0.06322886
105	0xbd44c8b8	-0.048042983
106	0xbdc73e4d	-0.0972868
107	0xbd32b7c1	-0.043632273
108	0xbd8955db	-0.06705829
109	0xbdd99846	-0.10624747
110	0xbde6d872	-0.112717524
111	0xbdd8a61d	-0.105785586
112	0x3d503339	0.0508301
113	0xbd5bd9aa	-0.053674378
114	0x3ddbbd1a	0.10729428
115	0xbd484ce2	-0.048901446
116	0x3d6c7d2a	0.057736553
117	0xbd9ca23e	-0.07648133
118	0x3df910c1	0.12161399
119	0x3cfc4add	0.030797416
120	0x3c15606f	0.00911723
121	0x3d16dd41	0.036832098
122	0x3cd2ec43	0.025747424
123	0xbd40bc73	-0.04705472
124	0x3ce675cb	0.02813234
125	0xbd985bf8	-0.07439417
126	0x3d75b6c4	0.059988752
127	0x3dfe1cd6	0.12407844
128	0x3df7012d	0.12060771
129	0xbcd7b7af	-0.026332704
130	0xbcbb0bf8	-0.022832856
131	0x3dddf093	0.108369015
132	0xbda7182b	-0.081589065
133	0x3d07ab9d	0.033122648
134	0x3cfcf0a9	0.030876474
135	0x3de42a68	0.11140901
136	0xbd3a503a	-0.045486666
137	0x3dd4bb3b	0.10387274
138	0xbcaab6a5	-0.020839045
139	0x3dfbd35b	0.12296172
140	0xbe026e64	-0.12737423
141	0xbd9ead5e	-0.07747911
142	0xbc98163f	-0.018565295
143	0xbdffd08a	-0.124909475
144	0xbc866bd9	-0.016408848
145	0xbdc700e4	-0.09716967
146	0x3d9cbee1	0.07653595
147	0x3ddacd70	0.10683715
148	0xbbda49b3	-0.0066616177
149	0x3d9b1669	0.07572634
150	0x3d8082fd	0.06274984
151	0x3d5851aa	0.052812256
152	0x3c363c1d	0.011122731
153	0xbdae0b3a	-0.08498235
154	0xbde9e51d	-0.11420653
155	0x3d52c976	0.05146166
156	0xbdae5711	-0.085127
157	0x3dcaf07a	0.099091485
158	0x3cc71c52	0.024305496
159	0xbd872bf7	-0.066001825
160	0xbd5de1f0	-0.05417055
161	0x3d00c13f	0.031434294
162	0xbc2b3de6	-0.010451769
163	0x3ddd4344	0.108038455
164	0xbd3c4058	-0.0459598
165	0xbd95791b	-0.0729849
166	0xbde1a17b	-0.11017128
167	0x3ca3768e	0.019953992
168	0xbdb40ef5	-0.08791915
169	0xbc8971ab	-0.016777834
170	0x3dff1d7a	0.12456794
171	0xbd6576b3	-0.056021404
172	0x3df2a70b	0.11848267
173	0x3d929b02	0.07158472
174	0xbda4f90e	-0.08055316
175	0x3d86cde2	0.06582238
176	0xbd358810	-0.044319212
177	0x3d916105	0.07098583
178	0xbd95b254	-0.07309404
179	0x3d0ba4a3	0.034092557
180	0x3d94c5ca	0.07264288
181	0x3dc2f79c	0.09519884
182	0xbd283b2e	-0.041072063
183	0x3d9ae59d	0.075633265
184	0x3db9ce75	0.09072582
185	0xbcf69ef9	-0.030105101
186	0x3dade87d	0.08491609
187	0xbcfd71c6	-0.03093804
188	0xbd9222ee	-0.071355686
189	0x3d44cff2	0.048049875
190	0x3d0ba5df	0.034093734
191	0xbde69dca	-0.112605646
192	0xbd503575	-0.05083223
193	0xbcd8282d	-0.026386345
194	0x3d9df62c	0.07712969
195	0xbc644db6	-0.013934543
196	0xbdf0806d	-0.11743245
197	0x3ca483da	0.020082403
198	0x3d09ecfe	0.03367328
199	0x3c9ccd1f	0.019140778
200	0x3dce0b77	0.100607805
201	0xbdfacd7f	-0.122462265
202	0x3c3b5738	0.011434369
203	0xbd944540	-0.07239771
204	0xbd595cc1	-0.053066973
205	0xbdae22f1	-0.08502758
206	0xbd0a19d5	-0.03371604
207	0xbdeb8e29	-0.11501724
208	0xbded8b46	-0.1159883
209	0x3da84f96	0.08218305
210	0x3d9dce62	0.0770538
211	0xbd3a96e4	-0.045554057
212	0xbd1750f7	-0.03694245
213	0xbd250c9d	-0.040295232
214	0x3d1e4085	0.03863575
215	0xbd46e3dc	-0.048557147
216	0x3d3179dc	0.043329105
217	0xba63f382	-0.0008695648
218	0x3d0ea1c0	0.034822226
219	0xbd78d965	-0.0607542
220	0xbd75ef01	-0.060042385
221	0x3d6a1f48	0.05715874
222	0x3dcb6eb2	0.09933223
223	0xbd8ff25c	-0.07028648
224	0x3d8024b7	0.06257003
225	0xbc201c5d	-0.009772387
226	0x3df67f5d	0.12036011
227	0xbd5beba6	-0.05369153
228	0x3dcebbbb	0.100944005
229	0x3d4772bb	0.0486934
230	0x3dbe2a18	0.092853725
231	0x3b10961d	0.002206213
232	0x3db88d4b	0.090113245
233	0xbb423e93	-0.0029639348
234	0xbb057b47	-0.0020367668
235	0xbc917f28	-0.017760828
236	0x3d0bdde0	0.034147143
237	0x3e019bbd	0.12657066
238	0x3dd9cf03	0.106351875
239	0xbd9a1340	-0.07523203
240	0xbd5fe248	-0.054659158
241	0x3d91c667	0.0711792
242	0xbd50f87c	-0.051018223
243	0xbd274843	-0.0408404
244	0x3ca4ddf3	0.020125365
245	0xbd97255b	-0.07380172
246	0xbdb0b2e7	-0.08627873
247	0x3dd633d3	0.104591034
248	0xbddd1d0a	-0.107965544
249	0xbd93d654	-0.07218614
250	0x3d6ccf48	0.057814866
251	0xbc6c2a68	-0.014414407
252	0x3d6c65ec	0.057714388
253	0xbc9fe519	-0.019518422
254	0xbbdbadc0	-0.006704062
255	0xbcb8a317	-0.022538705

cls_token.weight f4 [64]
0	0xbd39db54	-0.045375183
1	0xbdf140d7	-0.11779945
2	0xbda86043	-0.082214855
3	0xbcb7d19e	-0.02243882
4	0x3bf043cc	0.007332301
5	0x3d61b538	0.055104464
6	0x3deafab0	0.11473596
7	0xbcda50cf	-0.02664986
8	0xbd8bcf58	-0.06826657
9	0xbd9c8aee	-0.07643686
10	0xbdb7a239	-0.089664884
11	0x3dad28a4	0.08455017
12	0x3de33d4c	0.11095676
13	0x3cdbabf2	0.026815388
14	0x3d123e7a	0.035704114
15	0x3d42f508	0.04759696
16	0x3d9d058b	0.07667073
17	0x3d880d0f	0.06643116
18	0x3d9d5407	0.076820426
19	0x3d36cf16	0.044631086
20	0x3c638cb0	0.013888523
21	0xbd0ee536	-0.03488656
22	0x3da9240f	0.08258831
23	0x3d260c26	0.04053893
24	0x3da7c033	0.08190956
25	0x3df988aa	0.1218427
26	0x3db5f508	0.088846266
27	0x3de97f52	0.114012375
28	0x3dc59d8e	0.09649192
29	0xbcd20ad4	-0.025639929
30	0xbd2e80ec	-0.04260342
31	0x3d07742b	0.03306977
32	0x3d9e1a22	0.07719828
33	0xbdd3332a	-0.10312493
34	0x3d1676b8	0.036734313
35	0x3d552693	0.05203874
36	0xbd81b490	-0.06333268
37	0xbd88879a	-0.06666489
38	0xbd5c886e	-0.053841047
39	0x3df51297	0.11966436
40	0xbb352f08	-0.002764644
41	0xbd97604f	-0.07391416
42	0x3d74c4d8	0.059758037
43	0xbdaf1353	-0.08548608
44	0xbdf9a116	-0.12188928
45	0x3dad06d2	0.084485665
46	0xbb46876b	-0.0030293118
47	0x3c2d697c	0.0105842315
48	0x3d9fa3ec	0.077949375
49	0xbc549b32	-0.012976455
50	0xbc3f8dc9	-0.011691519
51	0xbcd0241d	-0.025407845
52	0x3d81181d	0.06303427
53	0xbcea5aa6	-0.028607678
54	0x3b215781	0.0024618807
55	0xbdb8d660	-0.09025264
56	0xbd44459a	-0.04791794
57	0xbdd20e52	-0.10256638
58	0x3db40a77	0.087910585
59	0x3dcf6cfe	0.101282105
60	0x3d353b88	0.044246227
61	0x3d2dbd0e	0.042416625
62	0xbd79b42f	-0.060962852
63	0x3d366709	0.044531856

blocks.0.attention.q_projections.0.weight f4 [8, 64]
0	0x3e977c75	0.2958714
1	0xbd98c5f5	-0.07459632
2	0xbe2f9a98	-0.17148817
3	0xbd25eff0	-0.040512025
4	0x3d09b70d	0.033621836
5	0xbee17c83	-0.44040307
6	0x3c956fb6	0.018241744
7	0xbcb6f901	-0.022335531
8	0xbd3a992c	-0.045556232
9	0xbe166442	-0.14686683
10	0x3e7e9136	0.24860081
11	0x3db4f0d2	0.08834995
12	0x3d7a9a49	0.061182294
13	0x3dca551f	0.09879517
14	0xbd8e72e0	-0.069555044
15	0x3eb64c5e	0.3560514
16	0xbd6393cc	-0.055560872
17	0xbe206083	-0.15661816
18	0xbdb63bec	-0.08898148
19	0xbe3e291c	-0.1857037
20	0xbe201a6f	-0.15635084
21	0xbbf6b6a9	-0.007529099
22	0x3c8ba8a1	0.017048182
23	0xbe7b7906	-0.24557886
24	0xbe0ddecb	-0.1385452
25	0x3e34587f	0.17611884
26	0x3e9f6b51	0.31136563
27	0x3d5d11e4	0.05397214
28	0x3de2e39d	0.1107857
29	0xbcf40158	-0.029785797
30	0x3e23f6b1	0.16012074
31	0xbdfcb6d8	-0.12339562
32	0x3ed962e8	0.42458272
33	0x3db47bdf	0.08812689
34	0xbb6cf235	-0.0036155109
35	0x3dca67b8	0.09883064
36	0xbe1dff4b	-0.15429418
37	0x3e57bddb	0.21068518
38	0x3daa5a79	0.083180375
39	0xbc7db355	-0.015484651
40	0x3dcf7272	0.101292506
41	0xbe84c452	-0.2593103
42	0x3e1773f6	0.1479033
43	0x3dc1eb1d	0.094686724
44	0xbe21fde2	-0.15819505
45	0x3cbcc6d4	0.023044027
46	0xbeb60453	-0.35550174
47	0x3db449bd	0.08803127
48	0x3e937e84	0.2880746
49	0xbd00eef8	-0.0314779
50	0x3d046d4b	0.032330792
51	0x3ddd754b	0.108133875
52	0x3cd5541b	0.026041081
53	0x3d2f2fda	0.042770244
54	0xbdc2d8ba	-0.095139936
55	0x3e65bfab	0.22436397
56	0xbe75517e	-0.23956868
57	0xbc81e22f	-0.015854923
58	0x3c99a2f8	0.018754467
59	0xbdcbd72f	-0.099531524
60	0xbec888dd	-0.39166918
61	0xbd23c63f	-0.039983984
62	0xbd80f54e	-0.06296788
63	0x3ec3b0d0	0.38220835
64	0x3d081a58	0.03322825
65	0x3c86b996	0.016445916
66	0x3e123621	0.14278461
67	0x3e644643	0.22292428
68	0xbce48d5a	-0.027899433
69	0x3cffb06c	0.031212054
70	0xbed3dc8e	-0.41379207
71	0xbce80a4f	-0.028325228
72	0xbd197728	-0.037467152
73	0xbdc91f11	-0.098203786
74	0x3f057e16	0.52145517
75	0xbdc091b9	-0.094027944
76	0x3e994020	0.29931736
77	0xbe04fe48	-0.12987626
78	0xbbc56299	-0.0060237166
79	0x3e83572e	0.2565245
80	0xbd71e530	-0.05905646
81	0x3d8f81f7	0.07007211
82	0x3e233f80	0.15942192
83	0xbce8fc24	-0.028440543
84	0x3e60424f	0.21900295
85	0xbe76e300	-0.24110031
86	0xbca5603c	-0.02018749
87	0xbd886fde	-0.06661962
88	0x3ea23c58	0.31686664
89	0xbe8f8e64	-0.28038323
90	0x3e1f8d6c	0.15581292
91	0xbdb8ffa8	-0.090331376
92	0x3e4b4e56	0.19854102
93	0xbe56702e	-0.2094123
94	0xbe267b4b	-0.1625797
95	0xbe72002e	-0.23632881
96	0x3e2ecd9b	0.1707062
97	0xbeff27bc	-0.49835002
98	0x3d3f9790	0.0467754
99	0xbe0c5c08	-0.13706982
100	0xbd0d9653	-0.03456719
101	0x3e85c99a	0.26130372
102	0xbe78ee09	-0.24309553
103	0x3be30c7f	0.00692898
104	0xbe4a67ed	-0.19766207
105	0xbe30343c	-0.17207426
106	0x3ba07fcd	0.0048980475
107	0xbd7a671f	-0.0611335
108	0x3e12ab1d	0.14323087
109	0x3ed00f55	0.40636697
110	0xbdb4cc76	-0.0882806
111	0xbe2bf400	-0.16792297
112	0x3d029652	0.031881638
113	0xbe9bd0d7	-0.3043277
114	0xbe48e621	-0.19619037
115	0x3e5c92be	0.21540353
116	0xbd3f40db	-0.04669271
117	0xbe49306e	-0.1964738
118	0x3c3fe6b6	0.011712721
119	0xbd229c0e	-0.039699607
120	0x3cff6bdb	0.03117936
121	0xbea9b3df	-0.33145043
122	0x3d2cad29	0.042157326
123	0xbbdff450	-0.0068345442
124	0x3b3c6a99	0.002875006
125	0xbd82f0c2	-0.06393577
126	0x3e7e4923	0.24832587
127	0x3d836d65	0.0641735
128	0xbe9b72ba	-0.30360967
129	0x3ccdd5ff	0.025126455
130	0x3e1199ff	0.14218901
131	0xbe911c78	-0.28342032
132	0xbdad6320	-0.08466172
133	0xbd198357	-0.03747877
134	0xbd570bc9	-0.052501474
135	0xbddba874	-0.10725489
136	0xbd47b597	-0.048757162
137	0xbd461b91	-0.048366133
138	0xbe33333d	-0.17500015
139	0xbe350668	-0.17678225
140	0x3e0fd9f6	0.14047989
141	0xbcd7bd9d	-0.026335532
142	0xbc96b930	-0.018398851
143	0x3d8a69b8	0.067584455
144	0x3e0072d1	0.12543799
145	0x3dac0bce	0.08400689
146	0xbd88357a	-0.06650825
147	0x3d18cbcc	0.03730373
148	0x3ea6b58f	0.32560393
149	0xbe35388e	-0.17697355
150	0x3e1955bc	0.14974111
151	0x3b87051b	0.0041204817
152	0x3e5b6cbd	0.21428199
153	0x3e520a57	0.20511757
154	0xbeae8fbd	-0.3409404
155	0x3e8dd841	0.2770405
156	0xbe140dcc	-0.14458388
157	0x3e2fecef	0.17180227
158	0x3db0e80c	0.086380094
159	0x3d27bdb2	0.040952392
160	0xbe12754b	-0.14302556
161	0x3d3d4c27	0.046215203
162	0x3df3d631	0.11906088
163	0xbe9bf4f3	-0.3046032
164	0x3e1bad98	0.1520294
165	0xbde90929	-0.113787
166	0x3eab1d4f	0.33420798
167	0x3d48282f	0.048866447
168	0x3d91fc12	0.07128157
169	0xbe03e1a9	-0.12879051
170	0xbd540906	-0.051766418
171	0xbdb41b73	-0.08794298
172	0xbca8cb06	-0.020604622
173	0xbd8e5ad2	-0.06950916
174	0x3ea661c2	0.32496458
175	0xbe30e8a4	-0.17276245
176	0x3e03ae4d	0.12859459
177	0x3dac526f	0.084141605
178	0xbdbe62c9	-0.092961855
179	0xbed9e13a	-0.42554647
180	0xbe43863a	-0.19094172
181	0xbe52753f	-0.20552538
182	0xbe020879	-0.12698545
183	0xbdb05704	-0.08610347
184	0xbdc8af8b	-0.09799107
185	0xbdbfade9	-0.093593426
186	0xbcf4b693	-0.029872214
187	0x3f01278b	0.5045096
188	0xbe5d57f2	-0.2161558
189	0xbd864b66	-0.0655735
190	0xbdb88f19	-0.09011669
191	0x3d543d06	0.05181601
192	0xbdc89d8e	-0.09795676
193	0xbe4d1246	-0.20026502
194	0x3e9e1434	0.3087479
195	0x3d8e379e	0.06944202
196	0x3e1d3bea	0.15354887
197	0xbe292a18	-0.16519964
198	0xbe281d27	-0.1641737
199	0xbd57cccc	-0.052685544
200	0x3def9bb0	0.11699617
201	0xbe0c95da	-0.13729039
202	0xbd1cc2b9	-0.03827164
203	0x3d96abc3	0.0735698
204	0xbdbc29ff	-0.091876976
205	0xbd972940	-0.07380915
206	0x3cc149b1	0.02359471
207	0xbe90624e	-0.282
208	0x3e1e81ff	0.15479277
209	0xbe8eeded	-0.27915898
210	0xbd1a80e3	-0.037720572
211	0xbc932e5b	-0.01796644
212	0x3d891130	0.066927314
213	0xbebe2331	-0.37136224
214	0xbe3074f6	-0.17232117
215	0xbd058795	-0.032600004
216	0xbd027753	-0.031852078
217	0x3dc234f2	0.09482755
218	0x3e2ec7c5	0.17068394
219	0x3e38a15b	0.18030302
220	0xbd918f56	-0.07107417
221	0xbe12bc5a	-0.14329663
222	0xbea487ee	-0.32134956
223	0xbda0c772	-0.07850541
224	0xbe10d9e7	-0.14145623
225	0x3dae28f4	0.08503905
226	0xbdefa086	-0.11700539
227	0xbe77cf22	-0.24200109
228	0x3e878695	0.26469865
229	0xbc621464	-0.013798807
230	0x3cef6137	0.02922116
231	0xbe9c9b93	-0.30587444
232	0x3d82bf9f	0.06384205
233	0x3e29fa3d	0.16599365
234	0x3df32b25	0.118734635
235	0xbd8dcbaa	-0.069236115
236	0x3cef7da1	0.02923471
237	0x3e106217	0.14099918
238	0xbc615f7e	-0.013755677
239	0x3e5c05b9	0.21486558
240	0xbe82e5b9	-0.2556589
241	0xbda51de6	-0.08062343
242	0x3c90e363	0.017686551
243	0xbdb95491	-0.09049333
244	0xbe3d4c02	-0.18486026
245	0x3d0ea2ba	0.034823157
246	0x3bae29c5	0.005315038
247	0xbd82218d	-0.063540556
248	0x3e6a2a5d	0.22867723
249	0x3def8f01	0.11697198
250	0xbe3e1763	-0.18563609
251	0x3d0c7185	0.03428795
252	0xbe4ed808	-0.20199597
253	0x3da10489	0.07862193
254	0x3e57a976	0.21060738
255	0xbd4fe6a7	-0.050757077

blocks.0.attention.q_projections.0.bias f4 [8]
0	0x3a694af6	0.00088994147
1	0xbb2cc823	-0.0026364408
2	0x3bc58e33	0.0060289144
3	0xbad674b4	-0.0016361685
4	0x3b934842	0.004494698
5	0xbb423610	-0.0029634275
6	0xbb8a3760	-0.004218027
7	0x3bf6d464	0.007532643

blocks.0.attention.q_projections.1.weight f4 [8, 64]
0	0x3e042dca	0.12908092
1	0x3d86dab2	0.065846816
2	0xbc58f412	-0.013241785
3	0xbd1df03d	-0.038559187
4	0x3ef2acdd	0.4739751
5	0xbe5ff4de	-0.21870753
6	0xbe70d840	-0.23519993
7	0xbe3dc2d5	-0.18531354
8	0x3e10e4bd	0.14149757
9	0x3e5c6507	0.21522914
10	0x3e130961	0.14359047
11	0x3e97b72a	0.2963193
12	0x3def3a13	0.11680999
13	0xbe2af918	-0.16696584
14	0x3cd1bf3d	0.025603885
15	0xbdb3d3e9	-0.08780653
16	0xbddcc131	-0.10779036
17	0xbd8581cb	-0.06518897
18	0xbdfe4bec	-0.12416825
19	0xbdbfa607	-0.09357839
20	0x3d229546	0.03969314
21	0xbe0ce54d	-0.13759346
22	0xbe5980c6	-0.2124053
23	0x3e3f2b06	0.18668756
24	0x3e897976	0.2685048
25	0xbdab4025	-0.08361844
26	0x3d0b2834	0.033973888
27	0x3c96b7bb	0.018398156
28	0xbe292576	-0.16518196
29	0xbd8f5a34	-0.06999627
30	0xbe76891c	-0.2407574
31	0xbdeebf18	-0.11657542
32	0x3dd56d1e	0.10421203
33	0x3db9cfe1	0.09072853
34	0x3e0ec08c	0.13940638
35	0x3db3b6c3	0.087750934
36	0xbe5aa85a	-0.21353284
37	0xbddb6b82	-0.10713865
38	0x3e19297f	0.14957236
39	0xbe1d118e	-0.15338728
40	0xbea9beee	-0.3315348
41	0x3d9628f7	0.07332032
42	0x3dc6cef7	0.09707444
43	0xbdc2f47b	-0.09519287
44	0xbe42e03b	-0.1903085
45	0x3ddf7660	0.1091125
46	0x3c3940ef	0.011306985
47	0x3de2bf20	0.110716105
48	0x3e8617a7	0.2618992
49	0xbdc2ef9a	-0.095183566
50	0x3df57c79	0.11986632
51	0x3c5a125f	0.013310044
52	0x3cf16a4f	0.029469637
53	0x3e31845a	0.17335644
54	0xbe76920b	-0.24079148
55	0xbcc5d3f4	-0.024148919
56	0x3e28dccf	0.16490482
57	0xbdbba757	-0.09162777
58	0x3ddd9fac	0.108214706
59	0xbdf1abbc	-0.11800334
60	0x3e41b955	0.18918355
61	0x3e19db7d	0.15025134
62	0x3e12a0f5	0.14319213
63	0xbde48dd8	-0.11159867
64	0x3db1f8a7	0.08690005
65	0x3e445af9	0.19175328
66	0xbe0aa26f	-0.13538526
67	0xbe0c4f88	-0.13702214
68	0x3dc40a95	0.09572331
69	0x3e3a3000	0.18182373
70	0xbdb304a1	-0.08741117
71	0x3d7e69e5	0.062112708
72	0x3ce4156b	0.027842244
73	0xbcecbcea	-0.028898675
74	0xbc977c2e	-0.01849183
75	0x3c7ccc15	0.015429516
76	0xbcf36cc9	-0.029714959
77	0xbe69d22b	-0.22834079
78	0x3dc8ec24	0.09810665
79	0xbd87bf88	-0.066283286
80	0xbe420e98	-0.1895088
81	0xbebfe58b	-0.37479815
82	0x3de915f4	0.1138114
83	0xbe703d31	-0.23460843
84	0x3ce2775a	0.027644802
85	0x3d11fca5	0.03564133
86	0x3d83cb23	0.0643523
87	0x3c049c66	0.008093929
88	0xbcac4850	-0.021030575
89	0x3d713362	0.058886893
90	0xbc5f8d6d	-0.013644558
91	0xbddea2b8	-0.1087088
92	0xbd8f84cc	-0.07007751
93	0xbe13ae8f	-0.14422058
94	0xbe4b2592	-0.1983855
95	0xbdc11612	-0.09428038
96	0xbe7bafae	-0.24578735
97	0xbea84237	-0.32863018
98	0xbe6e1380	-0.23249626
99	0xbe0c3c46	-0.13694867
100	0x3de09085	0.10965065
101	0xbd96be39	-0.07360501
102	0xbe859fcb	-0.26098475
103	0x3e0e87d2	0.13918999
104	0xbd6a5cee	-0.05721753
105	0xbe0dce0e	-0.13848135
106	0xbeb089f8	-0.34480262
107	0xbdac0294	-0.08398929
108	0xbe8fbf2a	-0.28075534
109	0x3e8494d5	0.258948
110	0x3e3b6f47	0.18304168
111	0x3ce0f1fd	0.027459139
112	0x3dffa7b0	0.12483156
113	0xbd0b1f8a	-0.033965625
114	0x3e73d390	0.23811173
115	0xbd5cce3c	-0.053907618
116	0xbe09ac3e	-0.13444611
117	0xbd8934fd	-0.0669956
118	0x3e90752d	0.28214398
119	0xbd1a1334	-0.03761597
120	0xbea69012	-0.32531792
121	0x3d01668a	0.03159193
122	0x3da3b33e	0.07993172
123	0x3d9bf54c	0.07615146
124	0x3e5f756c	0.21822137
125	0xbde76c09	-0.11299903
126	0xbe0f9fd3	-0.14025812
127	0xbd6fa545	-0.058507223
128	0x3e21d6af	0.15804552
129	0x3db2bebf	0.08727788
130	0xbda665be	-0.081248745
131	0x3db6fdd6	0.08935134
132	0xbebb79fa	-0.36616498
133	0xbec1ba6b	-0.37837538
134	0xbe268a7d	-0.16263767
135	0x3e7d2639	0.24721612
136	0xbe1483fa	-0.1450347
137	0x3e53367a	0.2062625
138	0xbbe161f2	-0.006878131
139	0x3dd46eb2	0.10372676
140	0xbe2af834	-0.16696244
141	0x3cae85fe	0.021304127
142	0x3ded57a5	0.115889825
143	0xbdd1ac7a	-0.102379754
144	0xbddb5736	-0.107099935
145	0xbe7f8f65	-0.24957044
146	0xbd4ea17a	-0.050446965
147	0xbef2a51d	-0.47391596
148	0x3e10d71f	0.14144562
149	0xbe033ccb	-0.1281616
150	0xbe4fe681	-0.20302774
151	0xbe48210f	-0.19543861
152	0xb5d24190	-1.56653e-06
153	0x3e5d99de	0.21640727
154	0x3e235cf6	0.1595343
155	0x3d98eb23	0.07466724
156	0x3e21af8d	0.15789624
157	0x3de52c67	0.1119011
158	0xbddd7831	-0.1081394
159	0x3e3e8d83	0.1860867
160	0xbe86f017	-0.2635505
161	0x3db74b36	0.08949892
162	0x3d8205f7	0.06348794
163	0x3c78a37e	0.015175698
164	0x3dafa441	0.08576251
165	0xbe967ca9	-0.29391983
166	0xbd1d35eb	-0.0383815
167	0xbe290c49	-0.16508593
168	0xbe6f6fe0	-0.2338252
169	0xbd5326a6	-0.05155053
170	0xbe4a1b66	-0.19737014
171	0xbe41a870	-0.1891191
172	0x3dd7f89a	0.10545464
173	0x3e4405bd	0.19142814
174	0xbdd52fcd	-0.10409508
175	0xbe195a43	-0.14975838
176	0x3ebcdc03	0.36886606
177	0x3e9af32a	0.30263644
178	0xbd65c821	-0.05609906
179	0x3de2bd83	0.11071303
180	0x3e81f902	0.2538529
181	0x3da0b90a	0.078477934
182	0x3e209b04	0.15684134
183	0x3e4e9a66	0.20176086
184	0xbd13b6ef	-0.03606313
185	0x3e202015	0.15637238
186	0xbe9c89ba	-0.30573827
187	0xbdbb0432	-0.091316596
188	0x3e0d5054	0.13800174
189	0xbe1716e1	-0.14754821
190	0x3e39c092	0.18139866
191	0x3e9332ae	0.28749603
192	0x3d9b9dba	0.07598443
193	0x3e06b738	0.1315583
194	0xbcc0b624	-0.023524351
195	0xbdc959d9	-0.0983159
196	0x3b5ef21c	0.003401882
197	0x3d0424dc	0.032261714
198	0x3e11b34c	0.14228553
199	0xbd82fc28	-0.06395751
200	0x3e84a782	0.25909048
201	0x3dac3812	0.08409132
202	0x3eb8f2d8	0.36122775
203	0x3df2a48d	0.11847792
204	0xbd141fc1	-0.036163095
205	0xbdc6179c	-0.09672472
206	0x3db51730	0.08842313
207	0x3d20484b	0.039131444
208	0xbd906762	-0.07050969
209	0xbd806150	-0.06268561
210	0x3d5b8f9f	0.053603765
211	0xbd02dae8	-0.031947047
212	0x3e8542b4	0.26027453
213	0x3d6a1db9	0.057157252
214	0x3de1aa72	0.11018838
215	0xbaa740aa	-0.001276036
216	0x3de2cf4d	0.11074696
217	0xbe89176e	-0.26775688
218	0xbc0881fa	-0.00833177
219	0x3d865d1f	0.0656073
220	0x3a0f60e1	0.0005469453
221	0xbe07d61d	-0.13265271
222	0xbcdcf832	-0.026973817
223	0xbe64bea3	-0.22338347
224	0x3e139a70	0.14414382
225	0xbcb8c9e9	-0.022557216
226	0x3ebd0d3f	0.36924168
227	0xbcb1740c	-0.02166178
228	0xbe9daa00	-0.30793762
229	0x3c3d16e1	0.011541099
230	0xbd735d43	-0.059415113
231	0xbeb0d816	-0.3453986
232	0xbebf4b0a	-0.37361938
233	0xbdfe37a0	-0.124129534
234	0xbd675719	-0.056479547
235	0xbea9e70d	-0.3318409
236	0x3a96b45c	0.0011497843
237	0xbe4f4971	-0.2024286
238	0xbdc72591	-0.09723962
239	0xbd748e5b	-0.059706073
240	0xbc64470a	-0.013932953
241	0x3ed9b66d	0.42521992
242	0x3e47cecb	0.19512479
243	0xbdc77cda	-0.097406104
244	0x3d355477	0.044270005
245	0xbd19358e	-0.03740459
246	0x3e85585e	0.2604398
247	0xbe56516c	-0.20929497
248	0xbe191a82	-0.14951518
249	0x3d69cdd7	0.05708107
250	0xbe3e611f	-0.18591736
251	0x3e14b54a	0.14522281
252	0x3ce41d7d	0.027846092
253	0x3e6ed78f	0.23324417
254	0xbe0c7dd1	-0.1371987
255	0x3da9c6e7	0.08289891

blocks.0.attention.q_projections.1.bias f4 [8]
0	0xbbc465b1	-0.005993568
1	0x3b0bf1d9	0.002135387
2	0xb975b788	-0.00023433391
3	0xbb2e0a39	-0.0026556386
4	0x3b340802	0.0027470593
5	0x3a976bb2	0.0011552481
6	0xbac24b45	-0.0014823457
7	0x3a5a1ee5	0.00083206437

blocks.0.attention.q_projections.2.weight f4 [8, 64]
0	0x3e1de6c9	0.15420069
1	0xbdcc101d	-0.09964011
2	0x3d83e5b8	0.064403
3	0xbeb90648	-0.36137605
4	0xbdbfcd19	-0.09365291
5	0x3d4330a9	0.047653828
6	0xbccb16be	-0.024791118
7	0xbe9660d3	-0.29370746
8	0x3e432449	0.1905681
9	0x3e3bf922	0.18356755
10	0xbdb5c582	-0.08875562
11	0x3ddaaf55	0.10677973
12	0x3d37851e	0.044804685
13	0x3e187998	0.14890134
14	0xbdb2940c	-0.08719644
15	0xbc3cd154	-0.011524517
16	0xbce587c0	-0.028018832
17	0xbe20b80d	-0.1569521
18	0xbe299d48	-0.16563904
19	0xbdd707d5	-0.10499541
20	0xbd75b44f	-0.05998641
21	0x3daf09d2	0.08546795
22	0x3ec72166	0.38892668
23	0x3e98ee95	0.29869524
24	0x3e041571	0.12898804
25	0xbc5353ca	-0.012898395
26	0xbe04798b	-0.1293699
27	0xbdb965f1	-0.09052647
28	0x3e5d4a94	0.2161048
29	0x3dee1a48	0.116261065
30	0x3d93c034	0.07214394
31	0x3e329ab2	0.17441824
32	0x3d03e9b8	0.032205313
33	0x3cf5a433	0.029985523
34	0x3da64c07	0.0811997
35	0x3ea74196	0.32667226
36	0x3dfeea4c	0.12447032
37	0xbea59bcf	-0.32345435
38	0x3da80896	0.08204763
39	0x3d20544e	0.0391429
40	0x3e3182fc	0.17335123
41	0x3e23cf1b	0.15996973
42	0x3d141d46	0.03616073
43	0x3e126df0	0.1429975
44	0xbdae9353	-0.085241936
45	0xbe01435e	-0.12623355
46	0xbec35ff4	-0.38159144
47	0x3d6baaf5	0.057536084
48	0x3d423809	0.04741672
49	0x3d3f0667	0.046636965
50	0x3da9a9fe	0.082843766
51	0xbce67150	-0.028130203
52	0x3de810fd	0.11331365
53	0xbdf118f6	-0.11772339
54	0x3d3b36fb	0.04570673
55	0xbe848743	-0.25884447
56	0x3e091bca	0.13389507
57	0xbd4b28ea	-0.049599566
58	0x3e814a98	0.25252223
59	0x3dcbd8ef	0.09953486
60	0xbdabb3be	-0.083838925
61	0x3ded6b00	0.11592674
62	0x3d9e253b	0.07721945
63	0xbe247ecb	-0.16063993
64	0xbe39ebd2	-0.18156365
65	0xbdd8218e	-0.10553275
66	0xbe683cfb	-0.22679512
67	0x3e1ac12d	0.15112753
68	0xbc1af2cb	-0.0094573
69	0xbe5eb427	-0.2174841
70	0xbe0f840d	-0.14015217
71	0x3e87709c	0.26453102
72	0xbe9a2579	-0.30106714
73	0x3e409413	0.18806486
74	0xbe158225	-0.14600427
75	0xbe13f313	-0.14448194
76	0x3db2a400	0.08722687
77	0xbe01b036	-0.12664875
78	0xbd68acb1	-0.056805316
79	0xbe18f7d0	-0.14938283
80	0x3bb8d2e7	0.005640376
81	0x3dc630d4	0.09677282
82	0x3e66450c	0.22487277
83	0xbd450607	-0.04810145
84	0x3db742f5	0.08948318
85	0xbd1544bc	-0.036442503
86	0x3d9dd812	0.07707228
87	0x3e7bd86a	0.24594274
88	0xbdbd08e7	-0.092302136
89	0xbdf1f87e	-0.11814974
90	0x3d2012e4	0.039080516
91	0xbdae0d9f	-0.08498692
92	0xbc0bb253	-0.0085264025
93	0x3d792a8b	0.060831588
94	0xbdd76d49	-0.10518891
95	0x3db95e00	0.09051132
96	0x3ec98714	0.3936087
97	0xbe81a362	-0.25319964
98	0xbdccdb04	-0.100027114
99	0xbb37313b	-0.0027952928
100	0x3d31e033	0.043426704
101	0xbcbd7f14	-0.023131885
102	0xbc9913e5	-0.018686244
103	0xbe665e57	-0.22496925
104	0x3e07501b	0.13214152
105	0xbe003437	-0.12519918
106	0xbe2a3240	-0.16620731
107	0xbe0b2b0c	-0.1359064
108	0xbeae59b2	-0.34052807
109	0xbd6adb7d	-0.057338227
110	0xbe5e783a	-0.2172555
111	0x3c641713	0.013921517
112	0xbdcd1f0c	-0.10015687
113	0xbcfb37e6	-0.030666303
114	0xbe0eb994	-0.1393798
115	0xbe099d82	-0.1343899
116	0xbe7c3448	-0.24629319
117	0x3e860f66	0.26183623
118	0x3efb412e	0.49073166
119	0xbe11c9e1	-0.14237167
120	0x3d5f4e57	0.05451807
121	0x3e40743f	0.18794344
122	0xbe09b2d0	-0.13447118
123	0xbc9ca093	-0.019119537
124	0x3e9da2f7	0.30788395
125	0x3e28bd1c	0.1647839
126	0x3e23556a	0.15950552
127	0xbeb8dcfd	-0.361061
128	0x3ce85e52	0.028365288
129	0xbea2c8bf	-0.31793782
130	0xbe4d7efd	-0.20067973
131	0x3e41895b	0.18900053
132	0x3ed49f3e	0.41527742
133	0x3e81517a	0.25257474
134	0x3e8c42ff	0.27394864
135	0xbde276af	-0.11057793
136	0xbd9baec1	-0.07601691
137	0xbec81437	-0.39077923
138	0x3d00be90	0.031431735
139	0x3e21a771	0.1578653
140	0x3d105fb6	0.035247527
141	0x3c0ecb15	0.008715411
142	0xbd215144	-0.03938414
143	0xbe6955fe	-0.2278671
144	0x3e3d2622	0.18471578
145	0xbb915b90	-0.004435964
146	0x3d670a29	0.056406174
147	0x3e50ef87	0.20403872
148	0xbd44d2e0	-0.04805267
149	0x3bb83b74	0.0056223217
150	0xbdc3e47f	-0.095650665
151	0x3cc35575	0.02384446
152	0x3dc72a5d	0.09724877
153	0x3d8447a5	0.064589776
154	0xbe248349	-0.16065706
155	0x3da8738c	0.08225164
156	0xbde45ebd	-0.111508824
157	0xbe06640f	-0.13124107
158	0xbe5169df	-0.20450543
159	0x3e1715b0	0.14754367
160	0xbea64d98	-0.32481074
161	0x3dafde46	0.08587317
162	0x3e9d46c2	0.30718046
163	0x3e980956	0.29694623
164	0xbe5fa454	-0.2184003
165	0xbda83cea	-0.082147434
166	0xbd099d94	-0.033597544
167	0xbe31cfe5	-0.17364462
168	0xbe019e7e	-0.12658116
169	0xbe8b2d2a	-0.27182895
170	0x3d452355	0.0481294
171	0x3c9bfb43	0.01904071
172	0xba24a4e1	-0.00062806724
173	0x3ab7287e	0.001397386
174	0xbe85f374	-0.26162302
175	0xbca8dcf1	-0.020613166
176	0x3e374cb7	0.17900358
177	0xbd8784f3	-0.06617155
178	0x3bfa537e	0.0076393476
179	0xbd9a1806	-0.07524113
180	0xbe83c12d	-0.2573332
181	0xbda0c2cb	-0.07849654
182	0x3e6cfe2a	0.23143831
183	0x3d6ecde7	0.058301833
184	0x3d2799f3	0.0409183
185	0xbe4775c7	-0.19478522
186	0x3eb15c21	0.346406
187	0xbbd45283	-0.0064795627
188	0x3cb4dc1c	0.022077613
189	0xbdb6a81f	-0.08918785
190	0xbe485c36	-0.19566426
191	0xbe4d2e92	-0.20037296
192	0x3ecffedc	0.4062413
193	0xbbb060f6	-0.0053826524
194	0xbe289a02	-0.16465
195	0x3e4253d2	0.18977287
196	0xbe433a9d	-0.19065328
197	0xbb64d353	-0.0034915998
198	0x3e3cd5fb	0.18441002
199	0xbe215080	-0.15753365
200	0xbea64c40	-0.3248005
201	0xbe17ed06	-0.14836511
202	0xbbe7164c	-0.0070522185
203	0xbd5cfb81	-0.05395079
204	0x3e2a7efb	0.16650002
205	0xbe2e46eb	-0.1701924
206	0x3ea05e11	0.31321767
207	0xbec4a245	-0.38405052
208	0x3d898f0b	0.067167364
209	0xbdf73ffe	-0.120727524
210	0xbdc752c6	-0.09732585
211	0xbe25e0eb	-0.1619908
212	0xbd50295e	-0.0508207
213	0xbe47a33f	-0.19495867
214	0xbe1552e0	-0.14582396
215	0xbe66a32c	-0.22523183
216	0xbc16ad28	-0.009196557
217	0x3db759b8	0.08952659
218	0x3d913253	0.07089677
219	0x3cd96e05	0.02654172
220	0xbdfae841	-0.1225133
221	0x3c8a8d28	0.016913012
222	0x3e8d84c3	0.27640352
223	0xbe85b0ad	-0.26111355
224	0x3d812ae7	0.06307011
225	0xbe12dfc5	-0.14343174
226	0x3e6a6d14	0.22893173
227	0x3e7b3cf6	0.24534974
228	0x3d43a4d5	0.047764618
229	0xbddac23e	-0.1068158
230	0x3c995ca7	0.018720938
231	0x3ec4f3a0	0.3846712
232	0x3dc7cee6	0.097562596
233	0xbe856e7d	-0.26060858
234	0xbdc374fe	-0.09543799
235	0xbe600519	-0.21876945
236	0xbdc96390	-0.09833443
237	0xbc3390b4	-0.010959793
238	0x3cff038c	0.031129621
239	0x3d753cbe	0.05987238
240	0x3df7cd53	0.12099709
241	0xbe357ef3	-0.17724209
242	0xbcaf7b6d	-0.021421159
243	0xbdd0b62b	-0.10190996
244	0x3ddb1118	0.1069662
245	0x3d14ae2a	0.03629891
246	0x3e474326	0.19459209
247	0xbd7fe025	-0.06246962
248	0xbd1fbc0f	-0.038997706
249	0xbdfc03c3	-0.12305405
250	0x3e8e1770	0.27752256
251	0xbbf7185c	-0.0075407457
252	0x3c301eb7	0.0107495105
253	0x3eb65a29	0.35615662
254	0xbdbe562f	-0.09293782
255	0xbddc85bb	-0.107676946

blocks.0.attention.q_projections.2.bias f4 [8]
0	0xbaa36d1e	-0.0012468433
1	0x3b695437	0.0035603174
2	0xbb63b823	-0.0034747205
3	0xbad3e708	-0.0016166875
4	0xba4b71be	-0.00077607844
5	0x398dfe93	0.00027083288
6	0xbadf9ae2	-0.0017059708
7	0xbb34f9d4	-0.002761473

blocks.0.attention.q_projections.3.weight f4 [8, 64]
0	0xbea23e11	-0.31687978
1	0x3e12e169	0.143438
2	0x3e664186	0.22485933
3	0xbd85ccbc	-0.065331906
4	0xbd5eaed8	-0.054365963
5	0x3e8f20ff	0.27954862
6	0xbc924463	-0.017854875
7	0xbd925773	-0.07145586
8	0x3d98da2b	0.07463487
9	0xbe3f9e6f	-0.18712781
10	0xbdc1ddb3	-0.09466114
11	0xbcad2deb	-0.02114006
12	0xbd0e22c2	-0.034701116
13	0x3defad91	0.11703027
14	0x3e618d20	0.22026491
15	0xbcacab9c	-0.021077923
16	0x3e09f33a	0.1347169
17	0x3e61ac68	0.22038424
18	0xbef9dc43	-0.4880086
19	0x3e62194a	0.2207996
20	0xbe24a190	-0.16077256
21	0x3e574df6	0.21025833
22	0xbe4b3265	-0.19843443
23	0x3dba3015	0.09091202
24	0xbde7f4fe	-0.113260254
25	0xbe117396	-0.14204249
26	0xbe2f1465	-0.17097624
27	0x3e24f1b6	0.1610783
28	0x3e4b8477	0.1987475
29	0xbca78905	-0.020451078
30	0xbed44c2c	-0.41464365
31	0xbd4e503d	-0.05036949
32	0xbe8a43db	-0.27004895
33	0x3dacda5f	0.084400885
34	0xbcd7eb9b	-0.026357463
35	0xbdaf6211	-0.085636266
36	0x3e130c92	0.14360264
37	0xbe1fdfc1	-0.15612699
38	0x3e361af4	0.1778372
39	0xbe249eab	-0.16076152
40	0xbea29132	-0.317514
41	0xbe87b813	-0.26507625
42	0xbe66f783	-0.22555356
43	0x3c49e450	0.0123225
44	0x3e87ae04	0.2649995
45	0x3ddba6d6	0.10725181
46	0xbdf89c77	-0.12139218
47	0x3e5a69e3	0.21329455
48	0xbe69ae6c	-0.22820443
49	0x3d4682d2	0.048464604
50	0xbe1a822f	-0.15088724
51	0xbd72bf08	-0.059264213
52	0x3edc4c9c	0.43027198
53	0xbd56079d	-0.052253354
54	0xbe214c67	-0.15751801
55	0x3b44dcf3	0.0030038923
56	0xbdc20d2d	-0.09475169
57	0xbdc89139	-0.09793324
58	0xbe6a1a9d	-0.22861715
59	0xbe1f0055	-0.1552747
60	0xbc5c2162	-0.013435693
61	0xbc4b44ec	-0.012406569
62	0xbe85353a	-0.2601717
63	0xbded646e	-0.11591421
64	0xbc87d14b	-0.01657929
65	0xbeb3a73f	-0.35088536
66	0xbcf5ba9d	-0.02999621
67	0x3dd869b4	0.10567036
68	0x3e34d10c	0.1765787
69	0x3c599bec	0.013281804
70	0xbd1b3892	-0.037895747
71	0xbdb7978f	-0.089644544
72	0xbd43bc66	-0.047787093
73	0xbe465fa6	-0.19372424
74	0xbddb097d	-0.10695169
75	0xbdc398dc	-0.0955064
76	0x3d92a28c	0.071599096
77	0x3c081254	0.008305151
78	0xbe93d52a	-0.2887357
79	0x3d9a72e0	0.07541442
80	0xbcb49ee5	-0.022048423
81	0x3ecaa236	0.39576882
82	0xbe991e52	-0.29905945
83	0xbbc1baaf	-0.005912147
84	0x3ea33023	0.31872663
85	0xbe847629	-0.258714
86	0x3e5ba123	0.21448188
87	0x3e2ee6b6	0.17080197
88	0xbc5472e7	-0.012966848
89	0xbd1fc3b1	-0.039004985
90	0xbda7fcbf	-0.08202504
91	0xbdc74d87	-0.09731584
92	0x3d84a775	0.064772524
93	0x3c75a7cf	0.014993622
94	0xbdf18e15	-0.11794678
95	0x3dfb1c28	0.1226123
96	0x3e11d431	0.14241101
97	0xbea17e57	-0.31541702
98	0x3e33c328	0.17554915
99	0x3de59cb1	0.11211527
100	0xbdc94929	-0.09828407
101	0x3e8b2dba	0.27183324
102	0xbcc0b2e1	-0.023522796
103	0x3e26eedc	0.16302055
104	0xbbd4031c	-0.006470097
105	0x3e4246e7	0.1897236
106	0xbe5a084a	-0.21292225
107	0x3d85b980	0.06529522
108	0xbe40fed3	-0.18847208
109	0x3dec5f08	0.11541563
110	0x3e57d21f	0.21076249
111	0xbe8c86b1	-0.2744651
112	0xbe2a8e62	-0.16655877
113	0x3d87d150	0.0663172
114	0x3e56ef61	0.20989753
115	0x3e9be04d	0.30444565
116	0xbb776fed	-0.0037755922
117	0xbd9ba5ff	-0.076000206
118	0xbc46c172	-0.012131082
119	0xbd33c5d5	-0.04388984
120	0x3e18b986	0.14914522
121	0xbe790d3f	-0.24321459
122	0xbe83a45a	-0.25711328
123	0xbeb30439	-0.3496416
124	0xbdbe881d	-0.09303305
125	0xbcd58a1a	-0.026066829
126	0x3e27f654	0.1640256
127	0x3e35fb51	0.17771651
128	0xbdf7d566	-0.121012494
129	0x3e8e31ad	0.27772275
130	0x3e26ef1f	0.16302155
131	0x3e88c9fa	0.26716596
132	0x3e93fe62	0.28905016
133	0xbe0b9ac9	-0.13633265
134	0x3e5b3faa	0.21411005
135	0xbd73e704	-0.059546486
136	0xbde09209	-0.10965354
137	0xbe87f5a0	-0.26554585
138	0x3d8fb4d2	0.070169106
139	0xbe7bb302	-0.24580005
140	0xba198c8d	-0.00058574305
141	0xbda8429a	-0.08215828
142	0x3e860f3e	0.26183504
143	0x3eb78cb5	0.35849538
144	0xbd8c0d3a	-0.0683846
145	0x3eb723ba	0.35769445
146	0x3c7e777c	0.015531417
147	0xbe843546	-0.25821894
148	0xbe80e8a4	-0.2517749
149	0x3dbd0d89	0.09231097
150	0xbeb09998	-0.34492183
151	0x3da973df	0.08274054
152	0x3d93a03a	0.07208295
153	0x3d479103	0.04872228
154	0xbead10e2	-0.33801943
155	0xbc678155	-0.014129956
156	0x3e27267d	0.16323276
157	0x3d365281	0.044512276
158	0xbd8bde14	-0.068294674
159	0xbe7e13ad	-0.24812193
160	0xbd2319db	-0.03981958
161	0xbe07a4a0	-0.13246393
162	0xbe5cbce2	-0.21556428
163	0xbe2bfed1	-0.16796423
164	0x3ba8651f	0.0051390077
165	0x3e957983	0.2919427
166	0x3de10654	0.10987535
167	0xbd723b15	-0.059138376
168	0x3e36bd7e	0.17845723
169	0x3df89dee	0.12139498
170	0x3de494f8	0.11161226
171	0x3e62ec7f	0.22160529
172	0x3d63d668	0.055624396
173	0x3da192d3	0.078893326
174	0xbe23b500	-0.15987015
175	0xbcfd0c32	-0.030889604
176	0xbe12de44	-0.143426
177	0x3e46a06e	0.19397137
178	0xbdeec93f	-0.116594784
179	0xbde8503b	-0.11343428
180	0x3eb20de7	0.34776232
181	0xbdb60dcf	-0.088893525
182	0xbc86116a	-0.016365726
183	0x3d230116	0.039795958
184	0xbe2e7f91	-0.1704085
185	0xbe3560b4	-0.1771267
186	0x3d4fadcd	0.05070286
187	0xbe41620a	-0.18885055
188	0xbd9e8b75	-0.07741443
189	0x3e6bb7a0	0.23019266
190	0xbe4a1d0c	-0.19737643
191	0x3d13b155	0.03605779
192	0x3d1be7bb	0.038062792
193	0xbdaa210e	-0.08307086
194	0xbcc5a302	-0.02412558
195	0x3cbe856f	0.023256985
196	0xbe658a1a	-0.22415963
197	0xbdd44c22	-0.10366084
198	0x3d843928	0.06456214
199	0xbbfd74a1	-0.0077348505
200	0xbcf8bb6d	-0.03036281
201	0xbccda0a4	-0.025101013
202	0xbd1fdf4a	-0.039031304
203	0xbcd3b74c	-0.025844239
204	0xbe5135bc	-0.20430654
205	0x3c0d9938	0.008642487
206	0x3e528c99	0.20561446
207	0x3d5b5ff3	0.0535583
208	0x3dd92262	0.10602261
209	0x3e456680	0.19277382
210	0xbdafb049	-0.085785456
211	0x3bf8a15b	0.0075875944
212	0x3c38e540	0.011285126
213	0x3e45565e	0.19271228
214	0xbe8046e8	-0.25054097
215	0x3dd4a66c	0.10383305
216	0xbd997f45	-0.07494978
217	0x3e412a03	0.18863682
218	0xbeb3e930	-0.35138845
219	0xbe9da6b9	-0.30791262
220	0x3dc15ad6	0.09441154
221	0xbe4688c8	-0.19388115
222	0x3e3932fb	0.18085854
223	0xbd9e77bf	-0.077376835
224	0xbbca6940	-0.0061770976
225	0xbe44842d	-0.19191046
226	0xbddb8224	-0.10718182
227	0x3cce3ca1	0.025175394
228	0xbdabaeb6	-0.08382933
229	0xbd9e8d08	-0.07741743
230	0x3d38a2ba	0.045077063
231	0x3e1b7767	0.15182267
232	0x3e807531	0.2508941
233	0x3dba0b29	0.0908416
234	0xbcb60748	-0.022220269
235	0x3e14e6e7	0.14541207
236	0xbe8a3ec2	-0.27001005
237	0xbc4a9ed1	-0.012366966
238	0x3e6d2b8f	0.23161148
239	0x3e7d9a88	0.2476598
240	0x3d8076e5	0.06272677
241	0xbd1090f2	-0.03529448
242	0x3eaa97e6	0.33319014
243	0x3e4b03cb	0.19825666
244	0x3e870412	0.26370293
245	0xbd6ea352	-0.058261223
246	0xbd93edd4	-0.072230965
247	0xbd383ff8	-0.04498288
248	0xbe86a612	-0.26298577
249	0x3dcfb830	0.10142553
250	0x3e8a483b	0.27008232
251	0x3ea1081e	0.31451505
252	0xbd018f03	-0.031630527
253	0x3e75d043	0.24005227
254	0x3dd8a451	0.10578216
255	0xbe089536	-0.1333817

blocks.0.attention.q_projections.3.bias f4 [8]
0	0x3bc690a8	0.006059725
1	0xbbe45097	-0.006967615
2	0x3b90ebeb	0.004422655
3	0xbbf26fe2	-0.0073985914
4	0x3a533816	0.00080573687
5	0xbbc99507	-0.0061517986
6	0x3c062237	0.008186868
7	0x383e7fe0	4.5418623e-05

blocks.0.attention.q_projections.4.weight f4 [8, 64]
0	0x3d124af9	0.03571603
1	0xbd7a5aa9	-0.061121617
2	0xbbce5b2f	-0.006297491
3	0xbde11561	-0.10990406
4	0x3e4fff3a	0.20312205
5	0xbd3f2f91	-0.046676222
6	0x3b912d3c	0.004430441
7	0x3ca8f851	0.020626219
8	0x3eb1ad47	0.34702513
9	0xbd5f4a23	-0.05451406
10	0x3d40d769	0.04708043
11	0x3d4f1bfa	0.05056379
12	0xbd328327	-0.043582108
13	0x3e53e276	0.20691857
14	0x3d2fa2db	0.04287992
15	0xbdab18a0	-0.08354306
16	0x3dd3b397	0.103369884
17	0xbdbae1fa	-0.09125133
18	0xbe29f1b1	-0.16596104
19	0x3c67b334	0.014141846
20	0x3dba1f71	0.09088028
21	0x3e20306e	0.15643474
22	0xbe19eefe	-0.15032575
23	0x3d7cf851	0.06176025
24	0x3dd08788	0.101821005
25	0x3d8ac986	0.06776719
26	0xbe3a4072	-0.18188646
27	0xbe5297a0	-0.20565653
28	0xbd3a345c	-0.04546009
29	0x3ebd669d	0.3699235
30	0x3df9590e	0.12175189
31	0x3eced409	0.40396145
32	0x3e9e9d07	0.30979177
33	0x3e86fb41	0.26363567
34	0x3da5b1c4	0.08090547
35	0xbe5c7202	-0.21527866
36	0x3dcb80fb	0.099367104
37	0x3e2096a0	0.15682459
38	0x3e4611f8	0.19342792
39	0x3e05e29d	0.13074727
40	0xbe282a8b	-0.16422479
41	0x3e328d85	0.17436798
42	0x3db4ac8f	0.088219754
43	0xbd07bb22	-0.033137448
44	0xbd271cd2	-0.04079897
45	0xbd8b46b5	-0.06800596
46	0xbdb67741	-0.08909465
47	0xbec4266c	-0.38310564
48	0x3e33bee8	0.17553294
49	0xba96d75f	-0.0011508277
50	0x3e700be7	0.2344204
51	0xbe957cb5	-0.29196706
52	0xb9f22238	-0.00046183332
53	0x3d39ac32	0.045330234
54	0xbe6842f7	-0.22681795
55	0xbe71f075	-0.23626883
56	0x3d154d15	0.036450464
57	0x3e97d0c3	0.2965146
58	0xbe300879	-0.17190732
59	0xbe3e8e9b	-0.18609087
60	0xbe04ac7d	-0.12956424
61	0x3d9809db	0.07423755
62	0x3e065ffd	0.13122554
63	0xbdecb096	-0.115571186
64	0xbcbd9d5b	-0.023146322
65	0x3c92ec6d	0.017935002
66	0x3ebb5c9b	0.3659409
67	0x3ead6816	0.33868474
68	0x3e47f8bb	0.19528477
69	0xbd690768	-0.05689183
70	0x3dd1272e	0.10212551
71	0x3d0445b0	0.03229302
72	0x3d4f9fc2	0.050689466
73	0x3b828484	0.0039830822
74	0x3cf10880	0.029422998
75	0x3ead8710	0.33892107
76	0xbef91a82	-0.48653036
77	0xbd1d373c	-0.038382754
78	0xbe2d3f6e	-0.16918728
79	0xbe47c105	-0.19507225
80	0xbca11e30	-0.019667715
81	0x3eae3fae	0.3403296
82	0x3e153d25	0.14574106
83	0xbd0bb358	-0.034106582
84	0xbea4ea8c	-0.32210195
85	0xbdaa30cb	-0.08310088
86	0x3cf68158	0.030090973
87	0xbe7c16cf	-0.24618076
88	0xbd96a7d8	-0.073562324
89	0xbd03be77	-0.032164063
90	0xbeb0a2e1	-0.34499267
91	0x3d5c9705	0.05385496
92	0x3d86ec6c	0.06588063
93	0xbe27c1ec	-0.16382569
94	0xbd26f530	-0.040761173
95	0xbdd641a7	-0.10461741
96	0x3d0a06ab	0.033697765
97	0x3ed6efbc	0.41979778
98	0xbe144f3e	-0.14483353
99	0xbe437093	-0.19085912
100	0x3e826dff	0.25474545
101	0xbde0b965	-0.10972861
102	0xbe5b98c1	-0.2144499
103	0x3b12e4a6	0.0022414117
104	0xbdcc15ba	-0.099650815
105	0xbec014f8	-0.37515998
106	0x3e403633	0.18770675
107	0xbe5d28f3	-0.21597652
108	0x3d1b66a1	0.03793967
109	0xbea5f994	-0.32416975
110	0xbdf563c4	-0.119819194
111	0x3c48909c	0.012241509
112	0xbd0fb152	-0.035081215
113	0x3df8182c	0.121139854
114	0x3e9fa7ad	0.31182614
115	0x3f050d26	0.5197319
116	0x3df28ffd	0.1184387
117	0xbe6b63df	-0.22987317
118	0x3dc9c56b	0.098521076
119	0xbe5682e6	-0.20948371
120	0x3e9b7210	0.3036046
121	0xbe469570	-0.19392943
122	0x3e757aa4	0.23972565
123	0xbd06f22c	-0.032945797
124	0xbd816240	-0.06317568
125	0xbe4915f1	-0.19637276
126	0x3e11feb5	0.1425732
127	0xbe113051	-0.14178587
128	0x3e07491e	0.13211486
129	0xbe3d3ba9	-0.1847979
130	0x3e69a853	0.22818117
131	0x3e24df42	0.16100791
132	0xbdc597dd	-0.09648106
133	0x3e0b6c25	0.13615473
134	0xbdf4c9ae	-0.1195253
135	0x3d8ac9bf	0.06776761
136	0x3daf1116	0.08548181
137	0xbeb935ba	-0.36173803
138	0xbdaa1b03	-0.08305933
139	0xba74cf7f	-0.00093387807
140	0x3c4f427f	0.012650131
141	0xbe09ad09	-0.13444914
142	0x3dc3efbb	0.09567209
143	0xba86657e	-0.0010253636
144	0x3d26c908	0.040719062
145	0x3ea74195	0.32667223
146	0x3da2749d	0.079323985
147	0x3dfcf631	0.12351645
148	0x3e37ce94	0.17949897
149	0x3de44f15	0.11147896
150	0x3dcdef85	0.1005545
151	0xbd6a573e	-0.057212107
152	0xbc4ce1d1	-0.012505011
153	0x3e789453	0.24275331
154	0x3dd37b94	0.10326305
155	0xbe65c0f9	-0.22436894
156	0xbd672934	-0.05643578
157	0xbe9ce46a	-0.30643016
158	0xbe233dae	-0.15941498
159	0xbcf4bcc9	-0.029875176
160	0x3e031ccd	0.12803955
161	0xbd67ed6e	-0.056622915
162	0x3e454cf2	0.19267634
163	0xbe27b450	-0.16377378
164	0xbdc583b7	-0.09644263
165	0xbe2ac7ed	-0.16677828
166	0x3e282026	0.16418514
167	0x3df6adb2	0.120448485
168	0x3df02c82	0.11727239
169	0xbe7b40f4	-0.24536496
170	0xbdd6f124	-0.10495213
171	0x3e45b18b	0.19306009
172	0x3dddd3e2	0.10831429
173	0x3d830843	0.0639806
174	0xbdbab926	-0.091173455
175	0x3de63ff1	0.112426646
176	0x3e84abf5	0.25912443
177	0x3e3e6b7b	0.18595688
178	0x3dd24315	0.10266701
179	0x3d5e2fe9	0.05424491
180	0x3e7f2100	0.24914932
181	0xbe49eb09	-0.19718565
182	0xbd3a2f84	-0.04545547
183	0xbd4b4059	-0.049621914
184	0x3df97fe2	0.12182595
185	0xbc8a28b9	-0.016865121
186	0x3eaabe22	0.33348185
187	0x3cf7fa0b	0.030270597
188	0xbca13e85	-0.019683132
189	0xbe737af4	-0.23777372
190	0xbe188df6	-0.14897904
191	0x3e9aaaf1	0.30208543
192	0xbe94bc42	-0.2904988
193	0xbd0e91c1	-0.03480697
194	0xbc2debe3	-0.010615322
195	0xbd8facb5	-0.07015363
196	0x3e08ff32	0.133786
197	0x3db9e6e0	0.09077239
198	0xbceb2cb9	-0.028707849
199	0xbd88db68	-0.066824734
200	0x3d33f152	0.043931313
201	0xbd1e6596	-0.0386711
202	0xbce3d971	-0.027813645
203	0x3e6f4b33	0.2336853
204	0x3cdf3e42	0.027251367
205	0xbe1ea0ff	-0.15491103
206	0xbe6b55b4	-0.22981912
207	0xbd978b93	-0.073996685
208	0xbe89053d	-0.2676181
209	0x3e0dc312	0.13843945
210	0xbda5202b	-0.08062776
211	0x3efc01dc	0.4922017
212	0x3ea871bd	0.32899275
213	0x3ed109f7	0.40827915
214	0x3d77266d	0.06033938
215	0x3e89c5cd	0.26908723
216	0xbe1659d1	-0.146827
217	0x3de70f21	0.112821825
218	0xbe2093bb	-0.15681355
219	0x3d27be07	0.04095271
220	0x3dfff920	0.12498689
221	0xbe7b4c09	-0.24540724
222	0x3e0f1601	0.13973238
223	0x3e9a2a1f	0.3011026
224	0xbe7173e1	-0.2357936
225	0xbe80abcb	-0.25131068
226	0x3e27c169	0.16382374
227	0x3d84eb26	0.064901635
228	0xbd15f7f6	-0.036613427
229	0xbe3a0ccf	-0.18168949
230	0x3e1bdb2c	0.15220326
231	0xbd206814	-0.039161757
232	0xbe5a41b8	-0.21314132
233	0x3d93569c	0.07194254
234	0xbe0dd9f1	-0.1385267
235	0x3dc7fcee	0.097650394
236	0x3e9a765a	0.3016842
237	0x3e954ce1	0.29160216
238	0x3e8132bd	0.25234023
239	0x3d5294aa	0.05141131
240	0x3e2620ae	0.16223404
241	0x3e4ac539	0.19801797
242	0x3f148c9b	0.58027047
243	0xbe96e567	-0.29471895
244	0xbdce4f5f	-0.100737326
245	0x3e7a3ef1	0.24438073
246	0xbeed041e	-0.46292204
247	0xbd85f3b1	-0.06540621
248	0xbdb5fc37	-0.08885997
249	0xbd5b471f	-0.053534623
250	0xbdb0b2be	-0.08627842
251	0xbe8f6e0f	-0.28013656
252	0xbe0a879f	-0.13528298
253	0x3ea7a46c	0.3274263
254	0x3dcea499	0.10089988
255	0x3e868216	0.26271123

blocks.0.attention.q_projections.4.bias f4 [8]
0	0xbad02269	-0.0015879396
1	0xbbc25507	-0.005930546
2	0x3bfc2366	0.0076946495
3	0x3b7d9769	0.0038694984
4	0x3af68fa5	0.001881112
5	0x3b8d948e	0.0043206876
6	0xbbb0e78c	-0.0053986963
7	0x3b929522	0.0044733444
