results/best_models/sparse_ftt_plus_regression_weights_seed_42.pt (torch, 860540 bytes, 138 tensors)

feature_tokenizer.num_tokenizer.weight f4 [8, 64]
-0.06941073 0.0054938463 0.10961396 0.08862564 0.11885057 0.03990628 -0.078486174 -0.040046386
-0.04065351 -0.09028861 -0.042081032 -0.11394979 -0.04368916 -0.11426584 0.12596424 0.02234749
0.11933368 0.060228292 0.116049 -0.044005185 -0.06139808 -0.055235904 -0.10251613 -0.001162931
0.013942366 0.06472034 -0.04371928 0.041064322 0.045751717 0.01887231 0.02305494 -0.051784437
0.074064694 -0.11820026 0.010707694 0.055643037 0.07694878 0.058553282 -0.022476925 0.0753838
-0.107661106 -0.012576838 -0.05466638 0.06906247 0.09778856 -0.037819393 0.025126847 -0.025555668
-0.039535165 0.05808862 0.04253338 -0.06011578 0.031380724 0.105972484 -0.084852464 -0.024144642
-0.09499927 -0.025315503 0.11061864 0.07394222 -0.10943775 -0.0988382 0.011884195 -0.016891763
0.0865981 -0.022752633 0.08175252 -0.07557695 -0.016934456 -0.0014461251 -0.08112325 -0.002813267
-0.017780684 -0.04814626 -0.098092034 -0.0006675341 0.11328207 0.052122105 -0.10090256 -0.04910731
0.07547498 -0.038051177 -0.013762768 -0.05335059 0.061667304 -0.0673275 -0.12909797 -0.08091106
-0.114751056 0.0018603548 0.0021245545 -0.039444756 0.04748696 0.027295964 0.03302903 0.0679103
0.016793033 0.12400029 0.09281567 -0.076904215 0.089817695 -0.012669892 -0.0062968866 0.01127835
-0.09583507 0.081499584 0.08959663 0.12666242 0.020220038 -0.026782315 -0.015240512 -0.04940601
-0.11292318 0.04349612 0.015172896 -0.047520492 -0.07092243 -0.034676027 0.028274298 0.09078743
0.05367049 0.10657582 0.092074186 -0.0610519 -0.0029142257 -0.10159361 -0.07187751 0.0475418
0.051994674 0.036547907 0.11166693 0.045745376 -0.08124584 -0.040389 0.02809535 0.06638564
-0.056016434 -0.060841743 0.03603638 0.037920244 0.09169764 0.11017731 -0.042684697 0.04343743
-0.08442215 -0.010558961 0.007683772 0.034125082 0.113876365 -0.088516526 0.11883901 0.07886181
-0.03865463 -0.039240982 -0.03955849 0.06757897 -0.018110001 0.029076323 -0.054961883 0.08409565
-0.017953705 0.13243762 -0.08993303 -0.03255894 0.07047926 0.04558746 -0.060805857 -0.11516432
-0.09811901 -0.095188454 -0.074229516 -0.07172025 -0.031906117 0.0965255 -0.028640365 -0.079779424
0.06357161 -0.0804828 -0.072150216 -0.007910686 -0.02474202 -0.07329782 -0.09776462 -0.105007656
-0.053812847 0.06538316 0.017361905 0.10816315 0.029810432 -0.085224435 0.025300963 -0.021714648
0.07958567 0.01695494 0.13410054 -0.10769946 -0.072556384 -0.12253135 -0.0011430529 -0.07171472
-0.008191627 0.11271343 -0.022491416 0.059255943 0.07080369 0.10049806 0.11461922 0.058137387
0.002948959 0.115463965 0.12762596 -0.082574055 0.025008928 0.08135984 -0.10497785 0.03455883
0.09172371 0.021010334 -0.04143198 -4.269895e-05 0.10686084 -0.10717553 0.04766595 -0.05031744
0.09289465 -0.03644149 0.0255574 0.071765274 -0.005332703 -0.013808742 0.10430236 0.11535909
0.030746475 -0.004768202 0.028125659 -0.08997493 0.09943527 0.046518516 0.08989669 -0.039650425
0.04469825 0.030702656 -0.0380901 -0.007719009 0.03855223 -0.025802683 0.11402307 -0.12401789
-0.031850897 -0.06098942 0.06366897 -0.04901536 -0.020887047 0.10013098 -0.106379636 -0.047134887
00000000: 3627 8ebd b905 b43b 497d e03d 5c81 b53d
00000010: ed67 f33d c474 233d 5cbd a0bd ae07 24bd
00000020: 4b84 26bd 3ce9 b8bd 295d 2cbd 825e e9bd
00000030: 68f3 32bd 3504 eabd c5fc 003e 1512 b73c
00000040: 3765 f43d f1b1 763d 19ab ed3d c83e 34bd
00000050: 8e7c 7bbd 0b3f 62bd faf3 d1bd 7d6d 98ba
00000060: 856e 643c 198c 843d fd12 33bd 1033 283d
00000070: 2766 3b3d 1a9a 9a3c b7dd bc3c eb1b 54bd
00000080: 3baf 973d fa12 f2bd 536f 2f3c f4e9 633d
00000090: 5297 9d3d 91d5 6f3d 8721 b8bc d262 9a3d
000000a0: 6d7d dcbd 150f 4ebc dbe9 5fbd a070 8d3d
000000b0: 5e45 c83d 82e8 1abd d1d6 cd3c 1f5a d1bc
000000c0: a0ef 21bd 55ee 6d3d 7b37 2e3d f73b 76bd
000000d0: 1389 003d 1a08 d93d 21c7 adbd fcca c5bc
000000e0: fa8e c2bd 7562 cfbc 078c e23d 056f 973d
000000f0: e620 e0bd af6b cabd edb5 423c 9860 8abc
00000100: 585a b13d bb63 babc dd6d a73d 17c8 9abd
00000110: 21ba 8abc e88b bdba f223 a6bd ca5e 38bb
00000120: cca8 91bc 0335 45bd 7ae4 c8bd 75fd 2eba
00000130: 6e00 e83d fd7d 553d 00a6 cebd bf24 49bd
00000140: a092 9a3d 8ddb 1bbd 3c7d 61bc 2686 5abd
00000150: db96 7c3d 00e3 89bd 4232 04be b3b4 a5bd
00000160: 9a02 ebbd 26d7 f33a 1c3c 0b3b d390 21bd
00000170: b081 423d c99b df3c 7349 073d 8e14 8b3d
00000180: 8b91 893c ddf3 fd3d 2416 be3d f57f 9dbd
00000190: 57f2 b73d 6195 4fbc 1d56 cebb d4c8 383c
000001a0: 2d45 c4bd 41e9 a63d 707e b73d cbb3 013e
000001b0: 7ea4 a53c 9666 dbbc 57b3 79bc f55d 4abd
000001c0: 4544 e7bd fd28 323d bd97 783c d9a4 42bd
000001d0: c73f 91bd 7308 0ebd 809f e73c c3ee b93d
000001e0: 96d5 5b3d 6c44 da3d 6491 bc3d 8f11 7abd
000001f0: 98fc 3ebb 5010 d0bd 8434 93bd 31bb 423d
00000200: 5ef8 543d 42b3 153d a2b1 e43d 815f 3b3d
00000210: 3864 a6bd f06e 25bd 3828 e63c 32f5 873d
00000220: 7d71 65bd 3135 79bd e29a 133d 4252 1b3d
00000230: f9cb bb3d a4a4 e13d 26d6 2ebd 72eb 313d
00000240: 85e5 acbd 7eff 2cbc 27c8 fb3b bec6 0b3d
00000250: 0338 e93d 2748 b5bd de61 f33d 4d82 a13d
00000260: 5154 1ebd 27bb 20bd 1508 22bd d866 8a3d
00000270: 6d5b 94bc 7831 ee3c b61f 61bd 573a ac3d
00000280: a613 93bc ba9d 073e cf2e b8bd 865c 05bd
00000290: 6e57 903d ebb9 3a3d 900f 79bd 45db ebbd
000002a0: 9ff2 c8bd 2af2 c2bd a505 98bd 11e2 92bd
000002b0: fdaf 02bd 29af c53d 339f eabc 6563 a3bd
000002c0: d531 823d 2bd4 a4bd 7ec3 93bd d29b 01bc
000002d0: c7af cabc 2b1d 96bd d138 c8bd 410e d7bd
000002e0: dc6a 5cbd 9be7 853d 8e3a 8e3c a484 dd3d
000002f0: 0235 f43c 268a aebd f743 cf3c ebe2 b1bc
00000300: d0fd a23d 16e5 8a3c a751 093e 8991 dcbd
00000310: 7198 94bd b7f1 fabd 7ed2 95ba 2bdf 92bd
00000320: 2d36 06bc 4cd6 e63d eb3f b8bc 5cb6 723d
00000330: 8601 913d edd1 cd3d 7bbd ea3d 7821 6e3d
00000340: 5243 413b 5f78 ec3d 61b0 023e 961c a9bd
00000350: 86df cc3c fd9f a63d a1fe d6bd 8f8d 0d3d
00000360: a4d9 bb3d dd1d ac3c 94b4 29bd a617 33b8
00000370: dbd9 da3d d87e dbbd 5f3d 433d a919 4ebd
00000380: 8d3f be3d ac43 15bd c15d d13c acf9 923d
00000390: f4bd aebb 103e 62bc 7a9c d53d 6341 ec3d
000003a0: 08e0 fb3c 943e 9cbb c867 e63c c744 b8bd
000003b0: b8a4 cb3d 338a 3e3d c11b b83d 7c68 22bd
000003c0: 8315 373d 2384 fb3c 5d04 1cbd beef fcbb
000003d0: f1e8 1d3d 2660 d3bc ed84 e93d 17fd fdbd
000003e0: 1676 02bd 0bd0 79bd e064 823d 55c4 48bd
000003f0: 501b abbc 7911 cd3d 91dd d9bd 8310 41bd

feature_tokenizer.num_tokenizer.bias f4 [8, 64]
-0.12884764 0.13016722 -0.09549406 0.09653516 -0.0786491 0.035290778 -0.011953686 0.10706402
-0.12558697 0.119860925 0.13527088 0.037245516 0.12146522 0.103319 0.0044084727 0.07612035
0.012083105 0.023166085 -0.087005265 -0.024507472 -0.06538321 -0.074779354 -0.07776605 -0.057262745
0.023393225 -0.008566797 0.043215528 0.049902912 -0.03935863 0.095060445 -0.09465533 -0.06690323
0.11964017 0.050035544 0.056668688 -0.122969985 0.09060433 -0.107852176 0.02070838 -0.07005883
0.047271922 -0.07747072 -0.12253961 -0.1083383 -0.10522783 -0.03924494 0.0006895874 -0.049010266
-0.047507584 0.020388262 0.108000465 -0.029739292 0.09968233 -0.05517211 0.10029665 -0.049215704
-0.057164803 -0.029458541 -0.02510847 -0.0764711 0.08516574 -0.11628899 -0.00289166 -0.110133916
-0.070566095 0.004483447 -0.0110868765 -0.03279721 0.00080241065 -0.03738568 -0.113973916 0.004288935
0.034332708 0.092325985 -0.0703343 -0.08776648 -0.08966972 0.061095163 -0.11551483 0.09205616
0.06141767 0.078543805 -0.04383084 0.07531392 -0.06244588 -0.028857004 0.10318312 -0.08587217
-0.029811572 0.017406598 0.047377083 -0.012626296 -0.09731568 -0.03552987 0.04369243 -0.09084412
-0.09277823 -0.03970968 0.016119055 -0.045325525 0.04418368 0.025962912 0.094033144 -0.019625004
-0.060001336 -0.065950476 -0.09460694 -0.055389743 -0.06612552 -0.10952817 -0.11557558 -0.09682564
0.033185504 -0.056294654 0.11333168 -0.040814385 0.058905493 -0.071789734 0.13084507 0.033188753
0.000359854 0.039018013 0.031550556 -0.0477568 0.037867162 -0.07386528 0.058337193 0.13691223
0.119455636 -0.026869655 -0.023827435 0.09628157 -0.08507091 0.029483173 0.023069205 0.11601002
-0.04434995 0.10602279 -0.027634772 0.12354885 -0.12999946 -0.07895857 -0.017231662 -0.124419585
-0.017543852 -0.09575631 0.07426632 0.111339115 -0.006790208 0.07880446 0.0635588 0.0507811
0.0072667394 -0.08687414 -0.11390548 0.05143494 -0.08757408 0.09262681 0.02020199 -0.06297064
-0.056912053 0.036573134 -0.01350934 0.10774512 -0.045611884 -0.07598138 -0.10979068 0.02467462
-0.08102776 -0.017104167 0.13139269 -0.05461468 0.1323065 0.07469248 -0.08174984 0.06081039
-0.038622525 0.07347946 -0.0693692 0.032823123 0.06355758 0.09395945 -0.039903883 0.07495379
0.096618444 -0.025424765 0.088084295 -0.03063267 -0.07215875 0.04596713 0.03632931 -0.1117488
-0.051249303 -0.025728881 0.07199001 -0.015716823 -0.11430885 0.024623552 0.03351592 0.021685146
0.10731198 -0.121509604 0.007926718 -0.073186345 -0.053156838 -0.087382086 -0.03853245 -0.1180459
-0.1189131 0.078966506 0.07224082 -0.04648536 -0.028320307 -0.038723506 0.035534527 -0.05438344
0.0460017 -0.006603265 0.041203327 -0.05835508 -0.050162006 0.06393845 0.10124984 -0.07107261
0.06089308 -0.011551118 0.115100585 -0.051532876 0.10269821 0.047724687 0.09237424 0.0026031763
0.08920561 -0.0022141736 0.0032170203 -0.014122178 0.032330852 0.12992485 0.110225625 -0.07977141
-0.057830304 0.06985611 -0.053973246 -0.047015715 0.017943226 -0.07803191 -0.08096871 0.10604328
-0.1105816 -0.067556135 0.05290103 -0.016845444 0.056222256 -0.01764971 -0.0068057794 -0.0196431
00000000: a3f0 03be 8e4a 053e 6492 c3bd 3ab4 c53d
00000010: c812 a1bd 108d 103d 65d9 43bc 6244 db3d
00000020: df99 00be a579 f53d 7384 0a3e c18e 183d
00000030: c2c2 f83d e998 d33d f374 903b fce4 9b3d
00000040: 37f8 453c cdc6 bd3c d12f b2bd e5c3 c8bc
00000050: a2e7 85bd eb25 99bd cf43 9fbd 578c 6abd
00000060: 26a3 bf3c c05b 0cbc c402 313d ff66 4c3d
00000070: 8436 21bd 0daf c23d a7da c1bd 9004 89bd
00000080: e805 f53d 12f2 4c3d 6d1d 683d b0d7 fbbd
00000090: c38e b93d 9ae1 dcbd 9fa4 a93c 017b 8fbd
000000a0: 34a0 413d f8a8 9ebd 0cf6 fabd 78e0 ddbd
000000b0: b081 d7bd 4dbf 20bd 6dc5 343a fdbe 48bd
000000c0: 5097 42bd 4905 a73c 592f dd3d d19f f3bc
000000d0: 4026 cc3d 27fc 61bd 5468 cd3d 6896 49bd
000000e0: a425 6abd 0a53 f1bc 47b0 cdbc e19c 9cbd
000000f0: 606b ae3d ec28 eebd 0182 3dbb e48d e1bd
00000100: f584 90bd e1e9 923b bba5 35bc 5e56 06bd
00000110: de58 523a ba21 19bd 286b e9bd 328a 8c3b
00000120: 74a0 0c3d 6815 bd3d 6e0b 90bd eabe b3bd
00000130: c2a4 b7bd ec3e 7a3d 0a93 ecbd f187 bc3d
00000140: 1891 7b3d 93db a03d f887 33bd 2f3e 9a3d
00000150: 40c7 7fbd 8665 ecbc ac51 d33d c0dd afbd
00000160: 6637 f4bc 4898 8e3c 790e 423d 86de 4ebc
00000170: 714d c7bd c587 11bd d5f6 323d 7b0c babd
00000180: 8302 bebd 9ea6 22bd 1c0c 843c 42a7 39bd
00000190: f2f9 343d 2cb0 d43c 7394 c03d 9ec4 a0bc
000001a0: f6c3 75bd 0b11 87bd 49c1 c1bd 5be0 62bd
000001b0: d16c 87bd 4e50 e0bd e4b2 ecbd 854c c6bd
000001c0: 86ed 073d 3995 66bd 711a e83d fc2c 27bd
000001d0: e346 713d 7f06 93bd 40fc 053e eef0 073d
000001e0: c9aa bc39 5ad1 1f3d 283b 013d a29c 43bd
000001f0: 991a 1b3d ae46 97bd fbf2 6e3d b832 0c3e
00000200: 28a5 f43d c01d dcbc c131 c3bc 462f c53d
00000210: a839 aebd b286 f13c a1fb bc3c a996 ed3d
00000220: 4ba8 35bd 7a22 d93d 5162 e2bc 2e07 fd3d
00000230: 941e 05be 08b5 a1bd 6a29 8dbc b2cf febd
00000240: 20b8 8fbc e21b c4bd f118 983d c305 e43d
00000250: 6580 debb 3c64 a13d 1e2b 823d d8ff 4f3d
00000260: d41d ee3b 12eb b1bd 4747 e9bd 72ad 523d
00000270: 0a5a b3bd 20b3 bd3d a57e a53c c0f6 80bd
00000280: 9d1c 69bd b6cd 153d 4756 5dbc 79a9 dc3d
00000290: 87d3 3abd 209c 9bbd f0d9 e0bd 6e22 ca3c
000002a0: e2f1 a5bd 0a1e 8cbc ce8b 063e a5b3 5fbd
000002b0: 5b7b 073e 5ff8 983d 766c a7bd 5114 793d
000002c0: a732 1ebd 667c 963d 7011 8ebd 8a71 063d
000002d0: 7a2a 823d d06d c03d 4172 23bd 5f81 993d
000002e0: e4df c53d 9947 d0bc 8a65 b43d 5df1 fabc
000002f0: f7c7 93bd 0848 3c3d 0bce 143d 8edc e4bd
00000300: caea 51bd 60c5 d2bc 806f 933d 91c0 80bc
00000310: c21a eabd 55b7 c93c fd47 093d 0ca5 b13c
00000320: 62c6 db3d 07da f8bd 11df 013c b9e2 95bd
00000330: fcba 59bd 61f5 b2bd 34d4 1dbd 0cc2 f1bd
00000340: b688 f3bd 31b9 a13d fff2 933d 6f67 3ebd
00000350: fdff e7bc 8a9c 1ebd a78c 113d 2cc1 5ebd
00000360: 476c 3c3d 3460 d8bb d2c4 283d bd05 6fbd
00000370: ad76 4dbd 29f2 823d 135c cf3d 848e 91bd
00000380: 066b 793d e740 3dbc dbb9 eb3d 2314 53bd
00000390: 7053 d23d f67a 433d b52e bd3d 0d9a 2a3b
000003a0: 6eb1 b63d ab1b 11bb a5d4 523b b560 67bc
000003b0: 5b6d 043d 050b 053e f9bd e13d 315f a3bd
000003c0: 78df 6cbd b810 8f3d 0d13 5dbd 8d93 40bd
000003d0: acfd 923c 32cf 9fbd ecd2 a5bd 382d d93d
000003e0: 9b78 e2bd df5a 8abd c0ae 583d 75ff 89bc
000003f0: 4f49 663d 2096 90bc 0403 dfbb 91ea a0bc

cls_token.weight f4 [64]
-0.043271914 -0.1196952 -0.08225442 -0.016809916 0.01991032 0.05376072 0.1144119 -0.030887688
-0.06776561 -0.07158843 -0.08615904 0.088668235 0.106701985 0.023558632 0.03598388 0.04974442
0.077031106 0.06537332 0.07754335 0.045046214 0.014285274 -0.044180285 0.07885176 0.04084615
0.083455384 0.12566216 0.08242493 0.109744936 0.09712807 -0.027394913 -0.037244275 0.036957037
0.07748703 -0.10562155 0.029648092 0.044615313 -0.06741503 -0.06538578 -0.054905865 0.12111074
0.0021144147 -0.07518737 0.061117668 -0.08553103 -0.11978182 0.08570278 -0.008609954 0.011128178
0.08173469 -0.012352229 -0.007975905 -0.02503347 0.060756985 -0.029189028 -0.0010131787 -0.09560998
-0.041148026 -0.1045428 0.090888485 0.10253123 0.035043433 0.043980904 -0.065610774 0.04413066
00000000: e43d 31bd c222 f5bd 0175 a8bd f3b4 89bc
00000010: f81a a33c 3334 5c3d c950 ea3d 2d08 fdbc
00000020: b2c8 8abd f49c 92bd 2774 b0bd b197 b53d
00000030: 9286 da3d 08fe c03c d563 133d cec0 4b3d
00000040: 7cc2 9d3d 72e2 853d 0ccf 9e3d 6182 383d
00000050: c80c 6a3c 63f6 34bd 087d a13d 4b4e 273d
00000060: a8ea aa3d 95ad 003e 67ce a83d f4c1 e03d
00000070: 15eb c63d 4c6b e0bc 748d 18bd 4360 173d
00000080: 85b1 9e3d 1c50 d8bd 8ee0 f23c 8cbe 363d
00000090: e410 8abd fbe8 85bd f9e4 60bd e808 f83d
000000a0: fe91 0a3b d6fb 99bd 8556 7a3d e52a afbd
000000b0: 2c50 f5bd f084 af3d c410 0dbc f652 363c
000000c0: 8464 a73d 0161 4abc 5fad 02bc fe12 cdbc
000000d0: 51dc 783d d41d efbc a3cc 84ba 2acf c3bd
000000e0: d58a 28bd 891a d6bd be23 ba3d e5fb d13d
000000f0: b489 0f3d 5225 343d f15e 86bd 5ac2 343d

blocks.0.attention.q_projections.0.weight f4 [8, 64]
0.28424644 -0.06530615 -0.1870593 -0.039135657 0.034017164 -0.434566 0.03268607 -0.016741972
-0.04530758 -0.152449 0.26007682 0.0941874 0.070002496 0.11748638 -0.07362531 0.3615163
-0.059236873 -0.16432346 -0.106450215 -0.1863204 -0.16768774 -0.01967758 0.006436539 -0.24917169
-0.13489279 0.16863254 0.3304466 0.05640415 0.113205105 -0.028570386 0.15686181 -0.110452086
0.42833295 0.09468517 0.00233689 0.088793196 -0.13936676 0.19976342 0.09619736 -0.030161263
0.12243401 -0.2665539 0.13995518 0.08304796 -0.17087841 0.015478261 -0.33740762 0.09118866
0.27802077 -0.029624304 0.03282954 0.11483534 0.030309338 0.036772728 -0.08915667 0.21757963
-0.2430178 -0.023928074 0.011953998 -0.112255335 -0.37281835 -0.041042995 -0.06314176 0.3830917
0.026127549 0.006784068 0.12973538 0.2182028 -0.022757467 0.037268437 -0.4027267 -0.029946081
-0.02338601 -0.099147946 0.5296481 -0.10159737 0.29375115 -0.12046569 -0.0037605797 0.26434308
-0.05905042 0.06912095 0.14878286 -0.023469929 0.20259367 -0.2538738 -0.011529889 -0.07733406
0.33142704 -0.28109062 0.16691153 -0.0828942 0.20490782 -0.21959038 -0.17445791 -0.23812951
0.16675958 -0.50874543 0.044680964 -0.1318368 -0.04449007 0.26077458 -0.23487918 0.019608967
-0.18719877 -0.17792344 -0.007167568 -0.062093914 0.13307604 0.4008684 -0.080455504 -0.17242552
0.05382872 -0.31631956 -0.19117564 0.2191269 -0.048843037 -0.19771317 0.014880254 -0.04691471
0.028937671 -0.33551762 0.04115898 -0.004231625 0.01892454 -0.053194918 0.2603222 0.07287323
-0.30336985 0.030824712 0.13920216 -0.27663776 -0.08704414 -0.030682983 -0.046589483 -0.09864779
-0.056582592 -0.047476206 -0.17108925 -0.16815656 0.1482117 -0.015752055 -0.023496395 0.073068514
0.1266339 0.07506514 -0.07226151 0.038208466 0.3203998 -0.1839238 0.1469344 0.00451508
0.21359205 0.2006431 -0.33378562 0.28456965 -0.14479637 0.17487423 0.08014878 0.046835754
-0.14182653 0.054601915 0.116466746 -0.30792576 0.16235478 -0.12324819 0.33454102 0.038057484
0.07163971 -0.1331752 -0.05589686 -0.09358829 -0.02538392 -0.07050824 0.3278787 -0.17534627
0.12623025 0.08762289 -0.09647288 -0.42798242 -0.1888246 -0.21117234 -0.12585211 -0.095247045
-0.09312012 -0.0907504 -0.031465918 0.49768177 -0.20847778 -0.07094742 -0.08587437 0.048255853
-0.10021241 -0.20914787 0.30961728 0.07003857 0.15849224 -0.16262504 -0.16795732 -0.054608636
0.11760082 -0.14207546 -0.036700215 0.06764128 -0.09657165 -0.08087662 0.024917666 -0.28772563
0.15982816 -0.27913842 -0.034897365 -0.015944539 0.062547185 -0.3752846 -0.17551987 -0.034160078
-0.03344671 0.09697364 0.17071828 0.1744363 -0.07066783 -0.13943078 -0.3280869 -0.08116178
-0.14198813 0.08342378 -0.11377317 -0.24102156 0.257808 -0.012932149 0.026825648 -0.29211196
0.06575516 0.16297534 0.122427955 -0.064761594 0.028460866 0.13407838 -0.009358665 0.21744597
-0.2534966 -0.07213738 0.020676306 -0.0890299 -0.18030895 0.037983105 0.0015207609 -0.054220214
0.23098575 0.113270424 -0.18271458 0.031037461 -0.19950172 0.07536166 0.21866407 -0.047488187
00000000: c088 913e 3bbf 85bd 798c 3fbe b64c 20bd
00000010: 9555 0b3d 6f7f debe d4e1 053d 7626 89bc
00000020: 7194 39bd 971b 1cbe ca28 853e 53e5 c03d
00000030: 785d 8f3d b39c f03d dec8 96bd aa18 b93e
00000040: 5da2 72bd 6944 28be 9202 dabd c6ca 3ebe
00000050: 56b6 2bbe e032 a1bc 9ae9 d23b dd26 7fbe
00000060: 5621 0abe 02ae 2c3e 4c30 a93e 0a08 673d
00000070: 14d8 e73d 710c eabc 62a0 203e b434 e2bd
00000080: 754e db3e 4cea c13d 8226 193b 35d9 b53d
00000090: 29b6 0ebe c88e 4c3e 1f03 c53d c114 f7bc
000000a0: afbe fa3d c179 88be 6950 0f3e 0d15 aa3d
000000b0: c0fa 2ebe 8898 7d3c b1c0 acbe 1fc1 ba3d
000000c0: bd58 8e3e abae f2bc 4578 063d ca2e eb3d
000000d0: 4a4b f83c 009f 163d c697 b6bd 32cd 5e3e
000000e0: a8d9 78be cf04 c4bc b4da 433c 20e6 e5bd
000000f0: 0ce2 bebe b31c 28bd 7850 81bd 9824 c43e
00000100: 7109 d63c e34c de3b 5ad9 043e 8e70 5f3e
00000110: de6d babc caa6 183d 3232 cebe 7c51 f5bc
00000120: 0594 bfbc 140e cbbd 0597 073f 4812 d0bd
00000130: 8d66 963e b7b6 f6bd 0f74 76bb fa57 873e
00000140: dade 71bd 498f 8d3d 895a 183e 0244 c0bc
00000150: b774 4f3e bffb 81be dce7 3cbc 5261 9ebd
00000160: ceb0 a93e 1ceb 8fbe dbea 2a3e 6fc4 a9bd
00000170: 5bd3 513e 4ddc 60be 18a5 32be 39d8 73be
00000180: 06c3 2a3e 243d 02bf 6303 373d 3a00 07be
00000190: 383b 36bd 3f84 853e 2b84 70be fca2 a03c
000001a0: 09b1 3fbe 9031 36be ebdd eabb 3056 7ebd
000001b0: 1645 083e 9f3e cd3e dbc5 a4bd 5190 30be
000001c0: 817b 5c3d a3f4 a1be 8cc3 43be cd62 603e
000001d0: a30f 48bd 5275 4abe 4fcc 733c a429 40bd
000001e0: b20e ed3c f7c8 abbe 5296 283d 71a9 8abb
000001f0: a307 9b3c eae2 59bd f448 853e 8f3e 953d
00000200: 4b53 9bbe 1b84 fc3c 038b 0e3e 77a3 8dbe
00000210: 3344 b2bd e15a fbbc 9dd4 3ebd da07 cabd
00000220: 26c3 67bd 6976 42bd 0532 2fbe 3c31 2cbe
00000230: cfc4 173e 740a 81bc 837b c0bc f2a4 953d
00000240: 51ac 013e c1bb 993d d8fd 93bd 7b80 1c3d
00000250: 710b a43e 8556 3cbe f975 163e 3cf3 933b
00000260: e0b7 5a3e 6375 4d3e f3e5 aabe 1db3 913e
00000270: 8045 14be 3b12 333e 0b25 a43d d9d6 3f3d
00000280: f93a 11be 42a6 5f3d 1e86 ee3d 72a8 9dbe
00000290: 5540 263e 8c69 fcbd f648 ab3e 2ae2 1b3d
000002a0: d7b7 923d 145f 08be 1bf4 64bd 38ab bfbd
000002b0: f0f1 cfbc a066 90bd b8df a73e f98d 33be
000002c0: 8142 013e a173 b33d 9393 c5bd 8320 dbbe
000002d0: 3c5b 41be 903d 58be 60df 00be e210 c3bd
000002e0: c3b5 bebd 59db b9bd 68e2 00bd 25d0 fe3e
000002f0: 337b 55be e24c 91bd e7de afbd eea7 453d
00000300: 2a3c cdbd dc2a 56be 2886 9e3e 6270 8f3d
00000310: ca4b 223e 2e87 26be 01fd 2bbe 4ead 5fbd
00000320: b3d8 f03d 3b7c 11be f752 16bd 8387 8a3d
00000330: 5bc7 c5bd a4a2 a5bd 2220 cc3c c650 93be
00000340: fea9 233e 3beb 8ebe 8af0 0ebd 1f9e 82bc
00000350: bd18 803d 4e25 c0be 7bbb 33be 70eb 0bbd
00000360: 6bff 08bd 1e9a c63d c6d0 2e3e 6e9f 323e
00000370: 4cba 90bd f1c6 0ebe 02fb a7be 2638 a6bd
00000380: 5665 11be 16da aa3d e801 e9bd 5bce 76be
00000390: 69ff 833e 5de1 53bc 76c1 db3c b38f 95be
000003a0: a4aa 863d 02e3 263e 82bb fa3d baa1 84bd
000003b0: c326 e93c d84b 093e 1655 19bc 28aa 5e3e
000003c0: 4eca 81be c3bc 93bd 5b61 a93c 4f55 b6bd
000003d0: e9a2 38be 2c94 1b3d 4554 c73a 0416 5ebd
000003e0: 8787 6c3e 53fa e73d 8819 3bbe 4642 fe3c
000003f0: 2e4a 4cbe 3757 9a3d 79e9 5f3e f982 42bd

blocks.0.attention.q_projections.0.bias f4 [8]
0.0033726483 -0.005525863 0.007576846 0.0007884105 0.012293487 -0.005941113 -0.013598662 0.019389305
00000000: a607 5d3b 4c12 b5bb 3147 f83b 55ad 4e3a
00000010: 9f6a 493c abad c2bb eccc 5ebc 52d6 9e3c

blocks.0.attention.q_projections.1.weight f4 [8, 64]
0.12361011 0.065169595 -0.016425822 -0.0445051 0.48380873 -0.21489716 -0.23251727 -0.19218424
0.15366168 0.20870166 0.14359817 0.2882291 0.116095886 -0.16445214 0.028819297 -0.08604499
-0.1069071 -0.06450772 -0.12857811 -0.09567258 0.03107948 -0.14070036 -0.21679115 0.18082179
0.27447626 -0.08290194 0.043020315 0.01983586 -0.1624218 -0.07697881 -0.23934072 -0.11257217
0.108820535 0.08299708 0.14252134 0.08674362 -0.20982936 -0.10406963 0.15567414 -0.15226103
-0.32324556 0.07263419 0.0901824 -0.091011904 -0.19314751 0.10299461 0.017269082 0.107601404
0.26089096 -0.09399054 0.12417878 0.013699261 0.026915515 0.17486888 -0.23884048 -0.023852717
0.15952721 -0.09467151 0.108302884 -0.11678732 0.19477051 0.15184301 0.14362429 -0.10522333
0.0798135 0.20434596 -0.1408808 -0.12687294 0.0875792 0.1853323 -0.089696534 0.07332061
0.029929016 -0.015494827 -0.013631153 0.014534019 -0.027086804 -0.21785963 0.09389713 -0.05388562
-0.19193245 -0.3686872 0.10419184 -0.23685573 0.022770988 0.038730204 0.06332125 0.0025618125
-0.013358332 0.054433394 -0.009980476 -0.105962366 -0.07864887 -0.1428021 -0.19397731 -0.1013241
-0.24301733 -0.32745582 -0.23212852 -0.14777151 0.11899599 -0.07640584 -0.24881482 0.13068318
-0.048396107 -0.13686574 -0.36410618 -0.09208043 -0.28166163 0.25687772 0.17885354 0.016406521
0.1192113 -0.03314696 0.24605776 -0.057612818 -0.13149147 -0.07176998 0.29192713 -0.03972576
-0.33265698 0.035165206 0.07385565 0.07091376 0.22329555 -0.11387347 -0.13984478 -0.06250763
0.16522534 0.0870576 -0.07973596 0.10708981 -0.37367472 -0.36305615 -0.15900092 0.2628296
-0.14663821 0.20748475 -0.012995823 0.10785622 -0.1617599 0.013605479 0.10302885 -0.1025667
-0.099284545 -0.25145936 -0.040774032 -0.4818251 0.14079317 -0.1269786 -0.19927296 -0.19804297
0.0051411674 0.22964779 0.15760179 0.07670486 0.15204255 0.120234475 -0.10772365 0.17711164
-0.26505154 0.090908274 0.057668988 0.012964839 0.085306086 -0.30398387 -0.04191364 -0.16674682
-0.23817125 -0.04553833 -0.19070098 -0.19181782 0.10617156 0.19861329 -0.1053037 -0.15741271
0.36861452 0.3077131 -0.070726134 0.093467675 0.25218746 0.070811085 0.15322916 0.19934608
-0.031169394 0.16644326 -0.30588597 -0.089598484 0.13899648 -0.15090738 0.18429601 0.28794584
0.08110811 0.12887456 -0.011115074 -0.09732607 -0.002065199 0.030519795 0.14160815 -0.058299396
0.26340905 0.07748089 0.3651378 0.11162838 -0.034668393 -0.093532234 0.08853437 0.04564206
-0.06821645 -0.05926704 0.05971051 -0.04213803 0.26180774 0.05096288 0.11644122 -0.005269116
0.11025988 -0.26194072 -0.008440621 0.06439703 0.0054733213 -0.13439792 -0.031150749 -0.23087113
0.13695882 -0.016828515 0.36081246 -0.019036295 -0.3098909 0.018048918 -0.06299756 -0.34215862
-0.37241206 -0.12604605 -0.057469666 -0.3292736 0.0032243056 -0.20026706 -0.09064659 -0.06620427
-0.004879246 0.4165957 0.18554641 -0.10201344 0.038256247 -0.047876216 0.25261626 -0.21873356
-0.14628343 0.06401775 -0.1825018 0.14658995 0.03202496 0.22306037 -0.13087529 0.09139267
00000000: 4c27 fd3d a377 853d 728f 86bc fb4a 36bd
00000010: c7b5 f73e 000e 5cbe 0219 6ebe f2cb 44be
00000020: 7d59 1d3e e3b5 553e 660b 133e c492 933e
00000030: aec3 ed3d 2466 28be 7216 ec3c 5b38 b0bd
00000040: 1cf2 dabd a01c 84bd fba9 03be fcef c3bd
00000050: 659a fe3c c113 10be 80fe 5dbe 5929 393e
00000060: 2788 8c3e 7ec8 a9bd 1236 303d d07e a23c
00000070: e651 26be 11a7 9dbd bc15 75be 3d8c e6bd
00000080: 4ddd de3d 60fa a93d 1df1 113e a4a6 b13d
00000090: 82dd 56be 7522 d5bd 0b69 1f3e 51ea 1bbe
000000a0: 7180 a5be 3cc1 943d 8db1 b83d 7364 babd
000000b0: 76c8 45be d7ee d23d e477 8d3c 205e dc3d
000000c0: 8093 853e 1d7e c0bd 7251 fe3d dd72 603c
000000d0: ed7d dc3c d410 333e 9992 74be c666 c3bc
000000e0: 1a5b 233e 23e3 c1bd e7cd dd3d 312e efbd
000000f0: ec71 473e bc7c 1b3e 3f12 133e 547f d7bd
00000100: 4375 a33d 1140 513e 0e43 10be fbea 01be
00000110: b95c b33d c0c7 3d3e d1b2 b7bd 1e29 963d
00000120: b22d f53c 04de 7dbc 3355 5fbc 1820 6e3c
00000130: 25e5 ddbc 9816 5fbe 234d c03d 2bb7 5cbd
00000140: f189 44be 92c4 bcbe 8862 d53d 4f8a 72be
00000150: 398a ba3c 90a3 1e3d 92ae 813d 15e4 273b
00000160: e8dc 5abc 8df5 5e3d 2785 23bc cc02 d9bd
00000170: a912 a1bd b73a 12be fda1 46be 0283 cfbd
00000180: 89d9 78be 4aa8 a7be 19b3 6dbe 6a51 17be
00000190: 2bb4 f33d aa7a 9cbd 50c9 7ebe d0d1 053e
000001a0: ff3a 46bd 8826 0cbe 206c babe aa94 bcbd
000001b0: f435 90be 7a85 833e 6225 373e f866 863c
000001c0: 0e25 f43d 1bc5 07bd 91f6 7b3e 6bfb 6bbd
000001d0: b3a5 06be 24fc 92bd 7977 953e 7bb7 22bd
000001e0: 0452 aabe 6409 103d a241 973d 3c3b 913d
000001f0: 97a7 643e 7e36 e9bd 7833 0fbe 0004 80bd
00000200: d530 293e 414b b23d 9b4c a3bd e751 db3d
00000210: 4b52 bfbe 7fe2 b9be 23d1 22be 9a91 863e
00000220: 5428 16be e276 543e 6fec 54bc b9e3 dc3d
00000230: 63a4 25be 84e9 5e3c ca00 d33d 7d0e d2bd
00000240: b255 cbbd 48bf 80be ac02 27bd c8b1 f6be
00000250: 162c 103e ae06 02be 360e 4cbe c7cb 4abe
00000260: 3d77 a83b ca28 6b3e 5d62 213e 7017 9d3d
00000270: 0bb1 1b3e 7e3d f63d 389e dcbd c15c 353e
00000280: d6b4 87be 1e2e ba3d 5136 6c3d 7a6a 543c
00000290: f5b4 ae3d c6a3 9bbe a3ad 2bbd aebf 2abe
000002a0: 2ae3 73be 6686 3abd 1e47 43be e46b 44be
000002b0: 7a70 d93d 4861 4b3e 77a9 d7bd cc30 21be
000002c0: 0bbb bc3e 928c 9d3e ddd8 90bd fb6b bf3d
000002d0: b71e 813e 6705 913d 1be8 1c3e 6121 4c3e
000002e0: f556 ffbc 1a70 2a3e 169d 9cbe 697f b7bd
000002f0: 1855 0e3e 7787 1abe 18b8 3c3e a36d 933e
00000300: 021c a63d b1f7 033e 001c 36bc e452 c7bd
00000310: 4a58 07bb a604 fa3c ba01 113e 59cb 6ebd
00000320: 8ddd 863e 4dae 9e3d 57f3 ba3e 6c9d e43d
00000330: 7200 0ebd d48d bfbd 8251 b53d 2bf3 3a3d
00000340: 11b5 8bbd ffc1 72bd 0293 743d ed98 2cbd
00000350: aa0b 863e 74be 503d bc78 ee3d 8ca8 acbb
00000360: efcf e13d 181d 86be 884a 0abc 97e2 833d
00000370: 8c59 b33b 9c9f 09be db2f ffbc 7b69 6cbe
00000380: ef3e 0c3e f4db 89bc 69bc b83e 01f2 9bbc
00000390: 05aa 9ebe 53db 933c dd04 81bd 6a2f afbe
000003a0: cbac bebe 3712 01be 5065 6bbd 8d96 a8be
000003b0: df4e 533b cf12 4dbe eba4 b9bd 1b96 87bd
000003c0: 15e2 9fbb 084c d53e e1ff 3d3e 6cec d0bd
000003d0: 95b2 1c3d da19 44bd eb56 813e b1fb 5fbe
000003e0: 53cb 15be bd1b 833d c0e1 3abe ad1b 163e
000003f0: 9b2c 033d f069 643e 2c04 06be 152c bb3d

blocks.0.attention.q_projections.1.bias f4 [8]
-0.009476718 0.008051405 0.0057907845 -0.0033265483 -0.0077469326 -0.007416456 -0.0008852873 0.00082095305
00000000: 3c44 1bbc 0aea 033c 9fc0 bd3b 3802 5abb
00000010: fbd9 fdbb be05 f3bb a012 68ba 3a35 573a

blocks.0.attention.q_projections.2.weight f4 [8, 64]
0.14559542 -0.10455852 0.06321663 -0.36677328 -0.09571329 0.03662978 -0.027214808 -0.29483455
0.18629277 0.18987648 -0.083312884 0.1049036 0.03344221 0.14611304 -0.08565636 -0.012006446
-0.026616393 -0.14422123 -0.16447136 -0.09717252 -0.057594545 0.08721389 0.39678568 0.30013692
0.12608123 -0.008582156 -0.12825002 -0.09871206 0.21617064 0.120382614 0.067597106 0.15184006
0.027135007 0.029634774 0.08531728 0.32831743 0.11147498 -0.32474595 0.08050904 0.045881815
0.18402347 0.14952154 0.043747764 0.1363184 -0.09135408 -0.13765378 -0.38320753 0.0754836
0.057670448 0.0416222 0.09316965 -0.025272664 0.12897076 -0.121240586 0.051653158 -0.25481343
0.1372124 -0.0635345 0.2535154 0.08587977 -0.08430506 0.111507215 0.08093344 -0.15867615
-0.19575728 -0.10730434 -0.22848614 0.14930707 -0.0030162914 -0.21611989 -0.14656891 0.25729156
-0.29839125 0.1898547 -0.15848856 -0.14780624 0.08594547 -0.12633081 -0.06649641 -0.13928634
0.016189674 0.11272451 0.22991142 -0.051296834 0.07850998 -0.033011124 0.08327053 0.24028131
-0.09187208 -0.10521704 0.05386571 -0.08708562 -0.012421936 0.057050813 -0.09644052 0.079163805
0.39556992 -0.25969827 -0.09193679 -0.008349455 0.05031063 -0.023638435 -0.010084442 -0.22341894
0.13359293 -0.12382539 -0.1688246 -0.1383442 -0.34886202 -0.06277935 -0.22406022 0.0017949723
-0.09582521 -0.030479277 -0.13359848 -0.15544447 -0.23660062 0.24761805 0.50483036 -0.14263828
0.056027792 0.19087657 -0.1350563 -0.023707248 0.30951536 0.1574806 0.16067742 -0.3491244
0.036865067 -0.3174534 -0.20407756 0.19164848 0.42793933 0.26279533 0.27353582 -0.11393048
-0.08105307 -0.38754705 0.036144663 0.1556037 0.034237534 0.0042130207 -0.03319211 -0.22752574
0.19284289 -0.018969137 0.052803487 0.20764937 -0.052209392 0.004844461 -0.1039808 0.025407141
0.09892149 0.061384417 -0.16704492 0.08786788 -0.10916083 -0.1384072 -0.21374512 0.15119497
-0.32101974 0.07814499 0.29454228 0.3078111 -0.2280876 -0.08720557 -0.036879595 -0.17369469
-0.13389488 -0.2658847 0.04906914 0.028026586 0.0026024266 -0.0015512923 -0.25809437 -0.016595496
0.1794129 -0.05951043 0.009043689 -0.075232565 -0.26104495 -0.0695716 0.22654197 0.055577263
0.04563839 -0.19356515 0.34313583 0.00036855091 0.011799871 -0.07917776 -0.19058155 -0.20727634
0.40572846 -0.010422877 -0.17124511 0.18451077 -0.18524988 -0.003689345 0.18337362 -0.16651127
-0.32377 -0.14180878 -0.0038479653 -0.058530655 0.16363364 -0.1736339 0.31551892 -0.38000268
0.07210486 -0.11790212 -0.09608002 -0.16090578 -0.053940468 -0.18937363 -0.14206496 -0.22410423
-0.006139503 0.0962379 0.07121006 0.02300473 -0.12252423 0.009109928 0.26880842 -0.26968315
0.06345449 -0.15792109 0.22313069 0.24962418 0.03203256 -0.10771023 0.019635145 0.38846236
0.10242561 -0.25756007 -0.09377922 -0.21559799 -0.10773165 -0.014338845 0.031741936 0.062170297
0.13125442 -0.18012846 -0.01606811 -0.10328162 0.110237926 0.03312807 0.19925693 -0.06429731
-0.035861004 -0.1233644 0.26679516 -0.00247547 0.00939903 0.36729753 -0.08784082 -0.1046448
00000000: f716 153e c722 d6bd b877 813d b5c9 bbbe
00000010: 5405 c4bd 1c09 163d 97f1 debc 8ef4 96be
00000020: 88c3 3e3e fb6e 423e f29f aabd b3d7 d63d
00000030: b3fa 083d a89e 153e 9a6c afbd afb6 44bc
00000040: 9f0a dabc bbae 13be 2e6b 28be 6302 c7bd
00000050: 42e8 6bbd 329d b23d 7e27 cb3e 8cab 993e
00000060: 701b 013e 2c9c 0cbc f953 03be 8c29 cabd
00000070: d65b 5d3e 298b f63d 5a70 8a3d f67b 1b3e
00000080: 3c4a de3c a0c4 f23c d3ba ae3d 3919 a83e
00000090: ff4c e43d 1a45 a6be ece1 a43d 92ee 3b3d
000000a0: a670 3c3e 2d1c 193e db30 333d 0d97 0b3e
000000b0: d917 bbbd 1df5 0cbe c733 c4be 2597 9a3d
000000c0: d937 6c3d 0a7c 2a3d bbcf be3d 9e08 cfbc
000000d0: e910 043e fc4c f8bd 4392 533d e876 82be
000000e0: 6881 0c3e 601e 82bd c5cc 813e bce1 af3d
000000f0: 22a8 acbd e55d e43d 6ec0 a53d 007c 22be
00000100: 9974 48be 61c2 dbbd 45f8 69be f4e3 183e
00000110: f9ac 45bb 884e 5dbe 2916 16be b8bb 833e
00000120: bdc6 98be 4569 423e d34a 22be 855a 17be
00000130: 2e04 b03d dd5c 01be 452f 88bd 14a1 0ebe
00000140: 35a0 843c 1cdc e63d e66d 6b3e a11c 52bd
00000150: d7c9 a03d ac36 07bd bd89 aa3d 4e0c 763e
00000160: 6e27 bcbd 087c d7bd 4aa2 5c3d f259 b2bd
00000170: 6085 4bbc 1dae 693d 9b82 c5bd a220 a23d
00000180: 2488 ca3e 2cf7 84be 5b49 bcbd 27cc 08bc
00000190: 8512 4e3d 64a5 c1bc 3739 25bc efc7 64be
000001a0: 96cc 083e 2b98 fdbd 5be0 2cbe 1aaa 0dbe
000001b0: 0b9e b2be 7692 80bd 0b70 65be 4745 eb3a
000001c0: 0240 c4bd adaf f9bc 0ace 08be d62c 1fbe
000001d0: 6f47 72be 968f 7d3e 903c 013f c50f 12be
000001e0: 667d 653d 2675 433e 334c 0abe b435 c2bc
000001f0: cc78 9e3e 9842 213e 9f88 243e 6fc0 b2be
00000200: d3ff 163d 4189 a2be b5f9 50be 803f 443e
00000210: dd1a db3e 1c8d 863e e30c 8c3e 6254 e9bd
00000220: 27ff a5bd 916c c6be 6d0c 143d 9456 1f3e
00000230: a83c 0c3d 610d 8a3b 73f4 07bd 82fc 68be
00000240: 9b78 453e 2a65 9bbc 7848 583d 09a2 543e
00000250: 84d9 55bd 49be 9e3b e3f3 d4bd a322 d03c
00000260: 5a97 ca3d 3a6e 7b3d d30d 2bbe 13f4 b33d
00000270: b78f dfbd 9eba 0dbe 00e0 5abe dbd2 1a3e
00000280: b35c a4be 7b0a a03d 3fce 963e 6b99 9d3e
00000290: cc8f 69be d598 b2bd 0f0f 17bd 05dd 31be
000002a0: bd1b 09be 0a22 88be b9fc 483d 0398 e53c
000002b0: 798d 2a3b bb54 cbba f224 84be 47f3 87bc
000002c0: 04b8 373e 35c1 73bd fb2b 143c 8813 9abd
000002d0: afa7 85be 8e7b 8ebd 9efa 673e fca4 633d
000002e0: 52ef 3a3d f135 46be 80af af3e 113a c139
000002f0: 3f54 413c f327 a2bd cf27 43be 4040 54be
00000300: a4bb cf3e b7c4 2abc e15a 2fbe 64f0 3c3e
00000310: 25b2 3dbe f0c8 71bb 4bc6 3b3e ee81 2abe
00000320: 2ec5 a5be 5236 11be 252e 7cbb d7bd 6fbd
00000330: 948f 273e 16cd 31be b28b a13e b68f c2be
00000340: b6ab 933d ab76 f1bd 9ac5 c4bd 7cc4 24be
00000350: aef0 5cbd 29eb 41be 7a79 11be 947b 65be
00000360: e22d c9bb 6018 c53d 94d6 913d 6a74 bc3c
00000370: fced fabd cf41 153c 42a1 893e e913 8abe
00000380: 6df4 813d 11b6 21be 5f7c 643e 7b9d 7f3e
00000390: 9334 033d 2e97 dcbd e2d9 a03c 8ae4 c63e
000003a0: 85c4 d13d eade 83be 520f c0bd b8c5 5cbe
000003b0: 69a2 dcbd 7aed 6abc d503 023d 48a6 7e3d
000003c0: 8f67 063e 9873 38be 45a1 83bc 5085 d3bd
000003d0: 6cc4 e13d 4db1 073d 020a 4c3e 4fae 83bd
000003e0: fde2 12bd 79a6 fcbd 6099 883e 7f3b 22bb
000003f0: 64fe 193c 6c0e bc3e e3e5 b3bd 0350 d6bd

blocks.0.attention.q_projections.2.bias f4 [8]
0.0067325486 0.017905463 -0.01826747 -0.00791176 -0.00930228 -0.006149447 -0.00034873598 -0.011966611
00000000: b69c dc3b 7aae 923c a9a5 95bc 54a0 01bc
00000010: 9768 18bc 4d81 c9bb 8dd6 b6b9 9b0f 44bc

blocks.0.attention.q_projections.3.weight f4 [8, 64]
-0.32374594 0.14930266 0.22264445 -0.060340356 -0.054567594 0.2734396 -0.023241049 -0.06904646
0.08053059 -0.18395342 -0.09554255 -0.023376886 -0.044341374 0.11133899 0.22108178 -0.024293516
0.13558275 0.22553034 -0.48631686 0.22030085 -0.16939373 0.21498969 -0.20453757 0.08693362
-0.114761196 -0.1414013 -0.17301825 0.15293632 0.19313754 -0.011000537 -0.4061557 -0.057506654
-0.27510518 0.08627663 -0.013214018 -0.08847414 0.14985543 -0.15229322 0.17761861 -0.155203
-0.3120934 -0.27120036 -0.22472931 0.008424977 0.2701592 0.0934613 -0.125101 0.22092268
-0.23914863 0.049538847 -0.14464825 -0.05089315 0.4392884 -0.04366944 -0.15231994 0.010603971
-0.09614906 -0.10352662 -0.22273694 -0.16803357 -0.013330523 -0.02040675 -0.2593016 -0.112070434
-0.0037361055 -0.34643617 -0.021780398 0.1129536 0.18877275 0.027961181 -0.037557766 -0.09255191
-0.053725436 -0.20144983 -0.10705138 -0.099163584 0.07524141 -0.0059506483 -0.28715405 0.066698425
-0.012554993 0.38459373 -0.29402092 -0.0098436605 0.32023558 -0.2595117 0.20178764 0.17966658
-0.016291989 -0.041137423 -0.09264645 -0.10224892 0.061927255 0.018125916 -0.12575752 0.12995608
0.14854814 -0.31674656 0.1653768 0.11731554 -0.10167062 0.27020773 -0.024591107 0.1556959
-0.012431644 0.20094839 -0.20639317 0.07519435 -0.1781032 0.120646 0.22081695 -0.27356935
-0.17764959 0.08658701 0.20072207 0.29785326 -0.007782381 -0.07118691 -0.02721065 -0.041242346
0.15069377 -0.23976585 -0.26352903 -0.34426793 -0.104306504 -0.01871471 0.16871713 0.17161547
-0.1260047 0.27615973 0.16673379 0.25034103 0.2933318 -0.14184001 0.21504544 -0.06962505
-0.10901453 -0.27601144 0.06439595 -0.25011936 0.012496566 -0.06852387 0.25997016 0.36639202
-0.06379199 0.3683901 0.007888186 -0.26097602 -0.23782991 0.082800634 -0.34911835 0.079753585
0.06650099 0.05543206 -0.3296053 -0.017048178 0.17530458 0.036963224 -0.068718255 -0.23836006
-0.03729301 -0.12960097 -0.21109931 -0.17584397 0.0072415867 0.29800972 0.116660476 -0.0569606
0.18005276 0.12085761 0.11028685 0.22196797 0.045500576 0.07399983 -0.1575469 -0.031006984
-0.14158809 0.1799357 -0.11024183 -0.11319203 0.3436647 -0.09417887 -0.013369336 0.035002586
-0.17854924 -0.17751622 0.053939033 -0.18469349 -0.0732258 0.22477245 -0.20912543 0.049301412
0.040871494 -0.07540832 -0.012917402 0.021797992 -0.22041708 -0.105050676 0.065637365 -0.011327675
-0.033904243 -0.031930003 -0.022631288 -0.028575532 -0.20158334 0.0088623185 0.21298686 0.050817452
0.09446545 0.1870084 -0.09003531 0.007873609 0.024169154 0.18921365 -0.24782339 0.114797056
-0.080874465 0.17833145 -0.35336888 -0.3053824 0.0955247 -0.1982711 0.1717999 -0.06849888
0.0026737964 -0.18988755 -0.11902777 0.028276864 -0.08510739 -0.07127185 0.048196908 0.1366498
0.24976774 0.09835808 -0.02584673 0.1529896 -0.2678019 -0.00102251 0.24232209 0.24540083
0.07017318 -0.031086817 0.32967883 0.1951252 0.25662097 -0.0617748 -0.08266095 -0.046583798
-0.26571468 0.1045944 0.25822538 0.32583037 -0.03794674 0.24692327 0.11051216 -0.14744455
00000000: 07c2 a5be cce2 183e e8fc 633e 7327 77bd
00000010: 4582 5fbd 4600 8c3e 0364 bebc 3b68 8dbd
00000020: 39ed a43d 495e 3cbe d0ab c3bd e280 bfbc
00000030: 4d9f 35bd b205 e43d 4363 623e 3203 c7bc
00000040: 34d6 0a3e 6df1 663e 86fe f8be 8c96 613e
00000050: 8d75 2dbe 4226 5c3e 4c72 51be 410a b23d
00000060: eb07 ebbd 81cb 10be b22b 31be 579b 1c3e
00000070: d9c5 453e 993b 34bc a4f3 cfbe 198c 6bbd
00000080: 96da 8cbe cdb1 b03d 9c7f 58bc ee31 b5bd
00000090: b473 193e c1f2 1bbe a7e1 353e 89ed 1ebe
000000a0: b5ca 9fbe c6da 8abe 711f 66be ea08 0a3c
000000b0: 4f52 8a3e a368 bf3d 7a1a 00be 8e39 623e
000000c0: 61e3 74be 3fe9 4a3d ac1e 14be 5675 50bd
000000d0: 69ea e03e bade 32bd c2f9 1bbe 47bc 2d3c
000000e0: cce9 c4bd c405 d4bd 2715 64be fe10 2cbe
000000f0: 4468 5abc 0e2c a7bc 2ec3 84be 2f85 e5bd
00000100: 73d9 74bb 1560 b1be ce6c b2bc 3854 e73d
00000110: a54d 413e d90e e53c 2cd6 19bd db8b bdbd
00000120: 340f 5cbd dd48 4ebe c13d dbbd 4716 cbbd
00000130: 2b18 9a3d a8fd c2bb db05 93be 2f99 883d
00000140: 75b3 4dbc 78e9 c43e e989 96be 4e47 21bc
00000150: ebf5 a33e b8de 84be 6ba1 4e3e 84fa 373e
00000160: c776 85bc b77f 28bd 6cbd bdbd e267 d1bd
00000170: 6fa7 7d3d cd7c 943c 94c6 00be 3513 053e
00000180: 011d 183e 9b2c a2be 8958 293e 2143 f03d
00000190: b038 d0bd ab58 8a3e 4a73 c9bc bf6e 1f3e
000001a0: 18ae 4bbc 6ac5 4d3e bb58 53be 7fff 993d
000001b0: af60 36be 4015 f73d d71d 623e 4811 8cbe
000001c0: c6e9 35be 8854 b13d 168a 4d3e 3980 983e
000001d0: 5803 ffbb 71ca 91bd dee8 debc bced 28bd
000001e0: 784f 1a3e 2e85 75be 47ed 86be e343 b0be
000001f0: a69e d5bd 974f 99bc 2fc4 2c3e f7bb 2f3e
00000200: 6007 01be cf64 8d3e 43bc 2a3e b32c 803e
00000210: 962f 963e 823e 11be df34 5c3e 9497 8ebd
00000220: 0343 dfbd 5f51 8dbe 06e2 833d a50f 80be
00000230: 66be 4c3c 3e56 8cbd cf1a 853e bc97 bb3e
00000240: 60a5 82bd a19d bc3e 733d 013c a69e 85be
00000250: af89 73be 6193 a93d a4bf b2be d955 a33d
00000260: ac31 883d ba0c 633d 07c2 a8be 9fa8 8bbc
00000270: 0b83 333e c066 173d 28bc 8cbd a914 74be
00000280: 8ec0 18bd 1eb6 04be 6b2a 58be 7110 34be
00000290: d54a ed3b bb94 983e b0eb ee3d 854f 69bd
000002a0: c05f 383e 3284 f73d 12de e13d 924b 633e
000002b0: d05e 3a3d 398d 973d f953 21be 5c02 febc
000002c0: 78fc 10be 1041 383e 78c6 e1bd 39d1 e7bd
000002d0: d2f4 af3e dae0 c0bd 0f0b 5bbc df5e 0f3d
000002e0: 9dd5 36be d0c6 35be 2def 5c3d 4a20 3dbe
000002f0: 69f7 95bd c02a 663e fa24 56be 47f0 493d
00000300: de68 273d ad6f 9abd 83a3 53bc b491 b23c
00000310: 04b5 61be cf24 d7bd e26c 863d b697 39bc
00000320: 2ddf 0abd 09c9 02bd 4065 b9bc 3c17 eabc
00000330: dd6b 4ebe 4233 113c 3a19 5a3e f625 503d
00000340: 1a77 c13d 217f 3f3e 6f64 b8bd 4f00 013c
00000350: 64fe c53c 39c1 413e 6ac5 7dbe b81a eb3d
00000360: 83a1 a5bd 859c 363e c4ec b4be 155b 9cbe
00000370: 74a2 c33d 9407 4bbe 50ec 2f3e 2449 8cbd
00000380: dc3a 2f3b e271 42be d5c4 f3bd e2a4 e73c
00000390: c94c aebd faf6 91bd 1f6a 453d eded 0b3e
000003a0: 1dc3 7f3e f66f c93d 86bc d3bc 4ea9 1c3e
000003b0: 551d 89be be05 86ba 4823 783e 5b4a 7b3e
000003c0: f5b6 8f3d c8a9 febc aacb a83e e7ce 473e
000003d0: d363 833e 9307 7dbd 254a a9bd a7ce 3ebd
000003e0: c10b 88be 9735 d63d 1e36 843e 3dd3 a63e
000003f0: 0a6e 1bbd 74d9 7c3e 3354 e23d b4fb 16be

blocks.0.attention.q_projections.3.bias f4 [8]
0.009235747 -0.015385086 0.008229706 -0.0141786495 0.010566997 -0.006595325 0.017206056 0.007061708
00000000: 8851 173c ba11 7cbc e4d5 063c 914d 68bc
00000010: 3321 2d3c 991d d8bb b7f3 8c3c e665 e73b

blocks.0.attention.q_projections.4.weight f4 [8, 64]
0.05006641 -0.071174465 -0.0007266974 -0.114013314 0.20417875 -0.044921096 0.004068499 0.0136462655
0.34035623 -0.060602326 0.031580564 0.05027568 -0.02858593 0.19243921 0.038117193 -0.09772023
0.11541511 -0.09117257 -0.14972004 0.008314066 0.10930737 0.15811007 -0.16805609 0.070224576
0.09462538 0.07824866 -0.19423124 -0.21937503 -0.04430175 0.37958637 0.11728221 0.40855533
0.31260496 0.26358315 0.08116285 -0.21899891 0.08325821 0.15529113 0.18252549 0.13974628
-0.17509474 0.17902781 0.10807536 -0.025935683 -0.04088211 -0.066054575 -0.089106 -0.37867156
0.16672343 0.0070082378 0.22928616 -0.29294404 0.00026244423 0.046558667 -0.2344815 -0.2298387
0.037740994 0.29666355 -0.1672776 -0.18038067 -0.13192101 0.07667826 0.124967456 -0.10696902
-0.023206785 0.01087952 0.36838162 0.34355912 0.19411309 -0.05781172 0.101239346 0.029779088
0.048008863 -0.0011423866 0.026498081 0.33994487 -0.48764482 -0.041814923 -0.16843612 -0.20512955
-0.021547763 0.33815822 0.15453637 -0.035898276 -0.32895327 -0.08283306 0.019955374 -0.24024977
-0.07398213 -0.032943856 -0.3493281 0.045043588 0.06220309 -0.15031427 -0.038188938 -0.09926656
0.035015825 0.4235829 -0.1375444 -0.1962397 0.2585693 -0.110814326 -0.21858065 0.008711253
-0.097057134 -0.38783553 0.19196069 -0.21765022 0.044306558 -0.32568157 -0.11747061 0.015213445
-0.044767253 0.12820794 0.30694953 0.52612734 0.12873504 -0.22538477 0.09662766 -0.20457394
0.30316308 -0.20115474 0.24486372 -0.046159755 -0.053951856 -0.2006094 0.14533181 -0.14333604
0.1316022 -0.19515184 0.22896037 0.1553302 -0.09686234 0.13540007 -0.10902593 0.057812445
0.07618577 -0.37889266 -0.10371286 0.010074725 0.041791935 -0.14319357 0.094433695 -0.0047292635
0.045902476 0.33563638 0.094064586 0.11223308 0.20194235 0.11203343 0.091210276 -0.04862638
-0.016568508 0.2698754 0.10668516 -0.22761022 -0.04795029 -0.30119804 -0.15795271 -0.019887643
0.13959317 -0.05355239 0.19699919 -0.1701313 -0.09830457 -0.1678508 0.15007782 0.12466212
0.115291215 -0.24561538 -0.091935016 0.18990098 0.097555086 0.07500734 -0.090936065 0.12204703
0.2535445 0.18245143 0.09535169 0.04836612 0.24833357 -0.20208822 -0.052746803 -0.057356555
0.11424816 -0.02196195 0.33923167 0.047255065 -0.021988919 -0.24331695 -0.16401939 0.31158945
-0.2865528 -0.03788244 -0.010408739 -0.07206509 0.1261247 0.08773013 -0.038630456 -0.065638
0.054213718 -0.027102865 -0.031761117 0.23018083 0.014795507 -0.17137219 -0.22847556 -0.08602521
-0.27231613 0.14111093 -0.07105762 0.49322656 0.3271749 0.4207925 0.06364944 0.26166108
-0.14097539 0.10870577 -0.16686073 0.03220201 0.11875739 -0.24137226 0.1478174 0.2839603
-0.23796546 -0.2614123 0.17079625 0.06753828 -0.046312854 -0.17952336 0.15392129 -0.033089194
-0.21555345 0.08103737 -0.13369665 0.1034577 0.31375757 0.2950085 0.24808994 0.050094947
0.15423903 0.20625727 0.5847143 -0.2922761 -0.09983784 0.25058833 -0.45766944 -0.047229826
-0.087865114 -0.05742022 -0.081126735 -0.28580996 -0.14105242 0.33626816 0.099575125 0.2557171
00000000: 7012 4d3d ebc3 91bd d67f 3eba d07f e9bd
00000010: 3c14 513e 2fff 37bd 0b51 853b 9694 5f3c
00000020: 2c43 ae3e 253a 78bd 9f5a 013d dfed 4d3d
00000030: 0a2d eabc c90e 453e c620 1c3d 8b21 c8bd
00000040: c25e ec3d afb8 babd 3650 19be b837 083c
00000050: 8bdc df3d 9be7 213e e516 2cbe e7d1 8f3d
00000060: f4ca c13d d540 a03d 8ee4 46be d9a3 60be
00000070: c075 35bd 2559 c23e a831 f03d 2a2e d13e
00000080: c20d a03e 5ff4 863e b538 a63d 4041 60be
00000090: 4883 aa3d a304 1f3e f6e7 3a3e a619 0f3e
000000a0: 094c 33be 1153 373e 9d56 dd3d 1277 d4bc
000000b0: 0074 27bd 9f47 87bd 357d b6bd 3de1 c1be
000000c0: 8cb9 2a3e 5ca5 e53b fec9 6a3e c3fc 95be
000000d0: ab98 8939 4db4 3e3d eb1b 70be d65a 6bbe
000000e0: 4d96 1a3d 49e4 973e d24a 2bbe b6b5 38be
000000f0: 4d16 07be 7e09 9d3d f0ee ff3d 9312 dbbd
00000100: 281c bebc 0440 323c 849c bc3e fbe6 af3e
00000110: 95c5 463e fbcb 6cbd 9356 cf3d 46f3 f33c
00000120: f1a4 443d 22bc 95ba 8112 d93c 410d ae3e
00000130: 95ac f9be 2046 2bbd 857a 2cbe 7b0d 52be
00000140: ef84 b0bc 1323 ad3e c83e 1e3e 120a 13bd
00000150: 906c a8be 61a4 a9bd 7479 a33c 0904 76be
00000160: f183 97bd 23f0 06bd 22db b2be a07f 383d
00000170: abc8 7e3d fceb 19be 016c 1cbd 444c cbbd
00000180: c16c 0f3d dcdf d83e 70d8 0cbe 0ff3 48be
00000190: 3263 843e 9ff2 e2bd 9bd3 5fbe a5b9 0e3c
000001a0: e4c5 c6bd 6192 c6be 5891 443e b3df 5ebe
000001b0: cb7a 353d bcbf a6be 6e94 f0bd d041 793c
000001c0: de5d 37bd f148 033e 7d28 9d3e 48b0 063f
000001d0: 1ed3 033e 44cb 66be b9e4 c53d d57b 51be
000001e0: 3138 9b3e 82fb 4dbe 8ebd 7a3e 0312 3dbd
000001f0: 9ffc 5cbd 8d6c 4dbe ddd1 143e afc6 12be
00000200: bac2 063e e2d5 47be 9674 6a3e e10e 1f3e
00000210: c35f c6bd 51a6 0a3e fd48 dfbd becc 6c3d
00000220: 4907 9c3d 38fe c1be 6867 d4bd 7610 253c
00000230: 052e 2b3d 56a1 12be 7466 c13d f0f7 9abb
00000240: 3c04 3c3d 88d8 ab3e efa4 c03d 75da e53d
00000250: fac9 4e3e c871 e53d 74cc ba3d 742c 47bd
00000260: aeba 87bc 1c2d 8a3e c07d da3d a712 69be
00000270: 8667 44bd a136 9abe 5bbe 21be 69eb a2bc
00000280: 83f1 0e3e c059 5bbd 28ba 493e e636 2ebe
00000290: e853 c9bd 15e1 2bbe 00ae 193e db4e ff3d
000002a0: cd1d ec3d 9982 7bbe 6d48 bcbd 6775 423e
000002b0: f6ca c73d 739d 993d b03c babd cbf3 f93d
000002c0: 96d0 813e 8cd4 3a3e bf47 c33d 8d1b 463d
000002d0: 284b 7e3e 37f0 4ebe 080d 58bd b5ee 6abd
000002e0: f0fa e93d 8ce9 b3bc c6af ad3e 878e 413d
000002f0: 1b22 b4bc 1428 79be b3f4 27be a788 9f3e
00000300: 0cb7 92be 9e2a 1bbd 6a89 2abc dd96 93bd
00000310: d526 013e dbab b33d f83a 1ebd 376d 86bd
00000320: 340f 5e3d d406 debc f217 02bd 86b4 6b3e
00000330: db68 723c 317c 2fbe 7ff5 69be fc2d b0bd
00000340: 056d 8bbe 627f 103e a886 91bd 3188 fc3e
00000350: 7883 a73e 1d72 d73e a35a 823d 71f8 853e
00000360: da5b 10be 21a1 de3d 8add 2abe 41e6 033d
00000370: 1337 f33d 4a2a 77be 725d 173e 3f63 913e
00000380: 38ad 73be d5d7 85be 36e5 2e3e 8251 8a3d
00000390: 8cb2 3dbd f9d4 37be 8b9d 1d3e 8988 07bd
000003a0: 0bba 5cbe ecf6 a53d c6e7 08be a1e1 d33d
000003b0: d5a4 a03e 5b0b 973e 4a0b 7e3e 5c30 4d3d
000003c0: d6f0 1d3e 1b35 533e d6af 153f 37a5 95be
000003d0: c877 ccbd 1d4d 803e a653 eabe 1074 41bd
000003e0: a0f2 b3bd 7731 6bbd c625 a6bd af55 92be
000003f0: 0c70 10be 572b ac3e 0bee cb3d 5aed 823e

blocks.0.attention.q_projections.4.bias f4 [8]
-0.004713342 -0.0034725764 0.010763175 0.0030290843 0.0016725215 0.005657969 -0.008674221 0.0014532859
00000000: 6172 9abb 2a94 63bb 0758 303c 9a83 463b
00000010: 8238 db3a 7c66 b93b 521e 0ebc 2f7c be3a
